Project/runs/tcn_testpos_win512/best.pt (torch, 29425 bytes, 6 tensors)

net.0.weight f4 [32, 3, 3]
00000000: 2e93 973e 02c1 34be f2eb 56be 1834 803e
00000010: 9f9b 073d c99d 663e 3113 9ebe 8856 93be
00000020: 99a3 6cbe 7a53 873d f839 5c3e 9c2a 8e3e
00000030: c1a0 8ebe a5d1 a8be b312 a8bd 58ac 9e3e
00000040: 5dd3 a3be 2259 b9bd ce94 003d aee5 ecba
00000050: ead5 72bc ed7d bdbe c820 5e3e 6766 a6be
00000060: 240b 6fbe 38fa 003e 74a6 9e3e 31fd 8d3d
00000070: 5521 4d3e 796a 6abd af5b 0dbe c2d8 14be
00000080: 9844 2abe b497 89be 857e 673d 4f85 a4bd
00000090: f83f bf3e d88f a4bb 302d a03e 748c 3dbe
000000a0: 1eaf 323e d66a 2dbe f2cf 553e 74e4 f9bd
000000b0: 86e8 57be faff b53d ed8a 4dbb a287 583e
000000c0: 3f73 203e 7afe 81be 8bc0 623e d263 32bd
000000d0: 275e adbe 78de 82be 15c1 413e f1e9 86be
000000e0: 044f 823e 89d9 783d f0de 413e 9bba fb3c
000000f0: f771 abbe 295b 98be 685e 98bd 31b9 47bd
00000100: 9adf 553e b61c 7e3d 6e12 2abe cd04 763e
00000110: 5ac3 373e 7477 b6bd a90f 343e cca1 9dbe
00000120: ff25 6dbe 9cfe 81be d72a 70be caf6 ad3e
00000130: ef54 15bd da78 51be c1f7 85be 8b88 18be
00000140: 71fb 8dbb e166 413e 7b7a 6e3d ca6e 58be
00000150: 8f6f 16be 67e9 8abe debe 963e d484 423e
00000160: 581e 97bd ce26 883d da92 a9bd 6211 a03d
00000170: 5629 a6be 36f1 7b3e 2012 923d 7282 a4bb
00000180: e11a 893d da0a 2a3d 7d24 1dbe 1c10 b9bd
00000190: 3b2f 21be 2cba 9a3c e95d 523e e5f2 10be
000001a0: ac29 21bd 36e0 13bd 0849 5f3d 650c 4b3c
000001b0: 5fe5 863e 9f10 763e b314 5d3e 56e7 023e
000001c0: d16d 3d3d 67e2 173e c7fd d73c c078 2fbe
000001d0: 1165 4cbe 19a3 4bbd 592b 083e eda9 9cbe
000001e0: e090 8abe 39c8 a3bd 90ca 12be 212e 6cbe
000001f0: 8a23 933c f33b 7a3c 52bd 1b3e 5c4a 82be
00000200: e09d 64be f1aa a13d 674e 853e b153 a8be
00000210: 87e4 a1be 41e8 8dbc 8086 943e 4695 523c
00000220: 9de2 30be 4408 673e 67ef 0e3e 22b2 8d3e
00000230: eae0 6d3d a25d ebbc 34ce 433e cc9d ae3e
00000240: 01ee 46be a5c8 523e e600 bf3e e2b9 83be
00000250: b1fe f3bd 3156 3d3e 4c28 abbe 9ccf 72bc
00000260: eda4 0b3d ec83 e83c 8181 a6be d3ec f1bd
00000270: 99a2 8b3e eec9 4bbe 97b2 f43b a442 69be
00000280: 5a9a 4dbe fcb2 313e c7e4 3fbe b309 d43d
00000290: 3f51 82be 2b85 a7bd 1648 c8bc 56b7 b7bd
000002a0: a649 f93d 6d65 243d aa68 a53e 49e2 c03d
000002b0: ca1e 3f3d 506d f43d 11bf 18be 1662 1a3d
000002c0: 5bd8 063e b043 9abe fd2e 02be 5325 a43d
000002d0: 1cf9 d3bd 1d53 8c3d c9a3 853e 0e98 233d
000002e0: 383f f4bc 943b 87be 17fb 8c3e 04cb 163e
000002f0: 6676 8d3b 979e a5be 40b4 59be 09bb 983d
00000300: e652 323e 38da 873e c23d d03d 4c59 95bd
00000310: 5a75 b1bd 6aed 943e 38ba 78be 1d89 29be
00000320: b7e0 173e be0a e53d 1daf d43d 6023 1abe
00000330: 1ad9 bf3d 1623 e7bd 5aab 3f3e f0a2 62bd
00000340: 13e8 1f3e bc48 febc eec3 3c3e f6fa 693e
00000350: 7a64 26bd 0586 83bd 5c70 2dbe 5d0f d03d
00000360: 778a 4cbe a5d2 ba3d 1b2b cfbd 0091 71be
00000370: a1f2 83bd 08d6 bdbc e274 7e3d bd0d 07bd
00000380: f4b5 d63b 5f4a 233c 0117 83be 5699 0e3e
00000390: aa53 643e 2267 bc3d e988 75be 51a0 a5be
000003a0: 1e3e f93d ac32 14be 50fe 1dbe f373 dc3d
000003b0: 61bf 59be 690d b4be 4416 923d 1c10 b3be
000003c0: cb50 8fbe b34b 56be 4670 aeba 3989 893e
000003d0: 1607 fcbc 40c7 b83e 275a 4a3e ba3b 913d
000003e0: b68e 843e a560 8a3e b5c2 adbd a43d ba3a
000003f0: 5cee 883e 5e22 2bbe 93aa 323d 20cb 913e
0.29604477 -0.17651752 -0.20988443 0.25039744 0.033107396 0.22521128 -0.30874017 -0.28776956
-0.23109283 0.06607719 0.21506488 0.27766883 -0.2785702 -0.32972446 -0.082066916 0.30990863
-0.31997195 -0.09050204 0.03139191 -0.0018073821 -0.014821509 -0.37010136 0.21692193 -0.32500002
-0.23344094 0.12595451 0.3098637 0.06933058 0.20032246 -0.057230446 -0.13804506 -0.14535812
-0.16627729 -0.26873553 0.056517143 -0.08033239 0.37353492 -0.0050220303 0.31284475 -0.1851061
0.17449614 -0.16935286 0.20880106 -0.12201777 -0.21084794 0.08886714 -0.0031363324 0.2114549
0.15668963 -0.25389463 0.22143762 -0.043552227 -0.33860895 -0.25560355 0.18921311 -0.26350358
0.2545091 0.060754333 0.189327 0.030728629 -0.33485386 -0.2975705 -0.074398816 -0.048760597
0.20886078 0.0620391 -0.16608593 0.24025269 0.17945614 -0.089095026 0.17584099 -0.30787504
-0.23159026 -0.25389564 -0.23453842 0.33977348 -0.036457952 -0.20456257 -0.26165584 -0.14895837
-0.0043329527 0.18886901 0.058222275 -0.21136013 -0.14690994 -0.27131197 0.29442495 0.18995982
-0.073788345 0.066480264 -0.08279963 0.078158155 -0.32453412 0.24603733 0.07132363 -0.005020433
0.0669458 0.041514255 -0.1534595 -0.09036276 -0.15740673 0.018887602 0.20543636 -0.14155157
-0.039346382 -0.036102496 0.054513007 0.012393092 0.2634687 0.24029778 0.21589927 0.1278356
0.046247307 0.1483246 0.026366128 -0.17135906 -0.19960429 -0.04971609 0.13297786 -0.30598393
-0.27063656 -0.07997174 -0.14335084 -0.23064472 0.017961282 0.015273082 0.15208939 -0.25447357
-0.2232585 0.078939326 0.2603638 -0.3287635 -0.31619665 -0.017322661 0.29008865 0.012852972
-0.17273946 0.22561747 0.13958512 0.27674967 0.058075823 -0.028731171 0.19121629 0.34104764
-0.19426729 0.20584352 0.37305373 -0.25727755 -0.11913813 0.1848991 -0.33429182 -0.014820006
0.034092832 0.028383218 -0.3252068 -0.11812749 0.2727249 -0.19901249 0.0074675786 -0.22779328
-0.20078412 0.17353433 -0.18739615 0.103534125 -0.2545261 -0.08179697 -0.024448436 -0.089705154
0.121722504 0.04013579 0.32306415 0.094181605 0.046660222 0.11934912 -0.14916636 0.0376912
0.1316847 -0.30129766 -0.12713237 0.080149315 -0.10350248 0.0685179 0.2610152 0.039939933
-0.029815301 -0.26412642 0.27535316 0.14725882 0.0043170927 -0.32347557 -0.21260166 0.07457549
0.17414436 0.26533675 0.10168029 -0.07292423 -0.08664961 0.29087383 -0.24289787 -0.16556211
0.14831816 0.111836895 0.10384963 -0.15052557 0.09367581 -0.11285989 0.18717709 -0.05533117
0.15615873 -0.031040542 0.18434116 0.2284964 -0.040623166 -0.064220466 -0.16937393 0.1015918
-0.19974695 0.091222085 -0.101156436 -0.2359047 -0.06442762 -0.023173347 0.062123187 -0.032972086
0.006552452 0.009966462 -0.25603488 0.1392568 0.2229754 0.091993585 -0.23978008 -0.32348874
0.12170051 -0.14472455 -0.15429044 0.10764303 -0.21264412 -0.3516648 0.07133153 -0.34973228
-0.27991328 -0.20927314 -0.0013308607 0.26862505 -0.030765098 0.36089516 0.19760953 0.0709147
0.2589013 0.2702686 -0.08484403 0.0014209044 0.26744354 -0.16712329 0.043619704 0.28475285

net.0.bias f4 [32]
00000000: 86a9 743d e3df 9ebd f102 a63d 1024 043c
00000010: 17c0 d73d a877 46be 8b13 11be 4a23 ee3d
00000020: 11d9 3b3e ce2d 5f3d dbda 1b3e dc6c 3abe
00000030: 91e4 7bbe cc1b 14be 7661 293e 97eb 2cbb
00000040: 54b7 2e3e a3fe 933d c6a4 90be a476 4bbe
00000050: b427 4dbe fc20 d7bd c56b 9f3e f67a e63d
00000060: d072 91be b3aa 39bd e225 c9bd 2335 8c3e
00000070: 0d21 febc baf6 dd3d f2d1 973e f9de 493d
0.059731983 -0.07757547 0.0810603 0.008065239 0.10534685 -0.19381583 -0.14167611 0.116278246
0.18344523 0.054487042 0.15220205 -0.18205589 -0.2459891 -0.14463729 0.16541085 -0.002638554
0.17062122 0.072263025 -0.28250712 -0.19869477 -0.20034677 -0.10504338 0.3113691 0.11253922
-0.28407907 -0.045328807 -0.09821679 0.2738429 -0.03102162 0.10838075 0.29652363 0.04928491

net.2.weight f4 [64, 32, 3]
00000000: eaf0 d8bc b409 493d a7d9 dcbd 7c1b aebd
00000010: 7f0c 92bc d4f3 89bc 38cf 783c 4ea8 493d
00000020: 70cd 20bc b29e 38bc d317 a23d da6d a8bd
00000030: ec1b da3c cb68 bbbd 2305 d9bc 2077 dcbd
00000040: c19d a93a 3707 d13c 3b0a 673d 1815 b9bd
00000050: 9ae5 90bc d958 a93d 39c7 953c 6455 c3bc
00000060: ac66 07bd 85dd 85bd 26ca 063d d8d8 f13c
00000070: 22eb d6bd db49 623d 0a09 bcbd 084f 8c3d
00000080: 16eb 9c3a ab91 39bc 79fc 6d3d 5331 adbc
00000090: 90b3 86bd 675a a73c c3ec bcbd 40c3 9d3d
000000a0: 282e 46bd cc75 5e3d d8b8 493d cbd1 bfbd
000000b0: 1040 6fbc 5ef7 04bc ddd3 e83c 2f93 0f3d
000000c0: d82f 093d ee1b 8fbc 111b 6dbd 5902 68bc
000000d0: 0559 8d3d 2f9f dfbc 6bda 543d e279 ccbc
000000e0: fac8 0bbd 27a1 453c 1383 ed3c a64d d6bd
000000f0: 2782 853c 9d43 91bd c9fe ad3d fd15 c7bd
00000100: 2a0d 01bd fe86 5c3d a967 b8bd fb9a b4bd
00000110: 3022 a53d 82f3 63bd 2cd3 a2bc 8fed 3b3d
00000120: 7574 fe3b cc47 a93d 0d6f 3abd 72f9 babc
00000130: 1641 a2bd 95f4 233d 0ec6 81bd c54c 293b
00000140: 8f1c 453d 8bd5 bf3d b06c b33c f088 123d
00000150: 9fe7 56bc a13a 8bbd 9b9e ccbd 703f 92bb
00000160: 5494 35bd 881e 713c 0b50 163d 30e1 e7bc
00000170: 5075 a5bd 778d 4c3d e9ba d33c 7fde d0bd
00000180: c94f cebd b7e1 05bd ad95 1cbd 2166 59bd
00000190: 1b9f ea3d 7134 7fbd 9577 bd3d 64f0 41bd
000001a0: f2bb 4f3b b8f6 6dbd 9308 d1bb c84f 3bbd
000001b0: 134a ddbd 1c2d b8bd 6bd4 0fbd e201 f3bc
000001c0: 4c01 7c3d 5eab 583d 443e 24bd 0207 c83a
000001d0: 8c8a 73bd dffe 92bc 486f 8c3d f6f7 95bd
000001e0: cdc1 54bd 427f 4b3d 826d 6bbd a849 aabd
000001f0: c1ca 6a3d ce65 41bd d65c d03b f1a6 503d
00000200: 5255 d93c f173 d2bd e8cf a73d c156 cbbd
00000210: bc98 113d 7983 07be 39a5 9e3d 5f78 8b3d
00000220: f1c4 c33c f4ae 9d3d 7bf5 3dbd 2d50 2d3c
00000230: 9f21 9f3d 34cd 1fbd a8a0 ccbd 0ef9 58bd
00000240: 4be7 08bd 81bd 9ebd b299 9fbd 4e59 823d
00000250: e82c 2e3d e7ea 7abd 08d3 2fbc b510 fb3c
00000260: 7997 bf3d 38fd 7e3b fc4f 893d 53b7 eb3c
00000270: 933b ae3d 8753 853d d5d2 8ebb 58ef c53c
00000280: c862 04bd 4914 71bd 95de 77bc 89dd ac3d
00000290: 3d76 b5bd 9c93 cfbd 8d12 18bd e3f4 913d
000002a0: d85b 52bd 5539 793d 19f9 85bd cb94 5f3c
000002b0: f997 e33d e9f9 06bd afd3 01bc 2b79 9b3c
000002c0: 917e 74bd 1b38 393d d663 ecbd 1bbf 213d
000002d0: 3192 483d 801d 763d 2345 2f3d 5182 413d
000002e0: f71d 813d 5f8c 88bd 3785 24bc 3e24 04bd
000002f0: 6541 31bd d3de 753d b9ab f6bb 6f3d ae3d
00000300: 7baa a83c 9f4f 983d f9fc 6abd f08d 9f3d
00000310: a780 df3d b8a2 693d 8555 5dbd 128d a63d
00000320: 3f2b bb3c d064 0cbd 1160 4cbc 8be5 7cbc
00000330: 1b7a 123e caf2 dc3c f105 033e bf9e 843c
00000340: 0f45 a8bb 698f d93d c96a db3d b20a aa3c
00000350: b52c 893b 7020 1d3c 89db 0d3d 86f4 e83d
00000360: d723 5abd 12bc 7f3a 5537 413d 30e3 703c
00000370: 8d3b 25bd 270f ac3d 4411 71bd 4c4e c5bc
00000380: 0eea 883d 71cf 99bd f7a8 c3bc 7a52 a7bd
00000390: b7f8 51bc 211b f1bc 03dc 863d d6a7 e6bd
000003a0: cb59 1ebd 0318 22be 8021 313d 3c68 c8bc
000003b0: 6380 44bd b466 d2bd c65d 1b3c 38fc 493d
000003c0: b8d8 843d a4be 0e3e 18e7 98bc 2cbb 61bd
000003d0: 8573 38bc 103d f9bc 65c7 e43d b04d 9c3d
000003e0: bb11 51bd 2e62 773d 6c85 d53d bd2c 8c3c
000003f0: 2477 463d ee16 a13d 7b30 f73d 205f afbd
-0.026482064 0.04908152 -0.107837014 -0.08501336 -0.017828224 -0.0168399 0.015186124 0.049232773
-0.009814605 -0.011268305 0.079147 -0.082240775 0.026624642 -0.09150847 -0.026491707 -0.10764909
0.0012940691 0.025516136 0.05640624 -0.090372264 -0.017687608 0.082688995 0.018283473 -0.023844428
-0.0330569 -0.06536392 0.032907628 0.029522344 -0.10494067 0.055246215 -0.091814116 0.068510115
0.0011971917 -0.011326234 0.058102105 -0.021141684 -0.065772176 0.02042885 -0.09224846 0.077032566
-0.04838386 0.05431156 0.049248546 -0.09366187 -0.014602676 -0.008115618 0.028421337 0.035052475
0.033492893 -0.017469373 -0.05788714 -0.014160716 0.06901745 -0.027297584 0.051966112 -0.024960462
-0.034127213 0.0120623475 0.028993165 -0.10464029 0.016297413 -0.07092974 0.08495862 -0.09720991
-0.031506695 0.053839676 -0.090041466 -0.08818623 0.080631614 -0.05565215 -0.019876085 0.04588085
0.0077653476 0.08265647 -0.045516063 -0.022824023 -0.079225704 0.040028173 -0.06336604 0.0025833112
0.04812294 0.09366902 0.021902412 0.035775125 -0.013116746 -0.06798292 -0.09991189 -0.0044631287
-0.04433091 0.014716752 0.03669743 -0.02830562 -0.08079016 0.0499396 0.025845962 -0.10198688
-0.100738116 -0.03268596 -0.03822868 -0.053075913 0.11456128 -0.06230587 0.09251324 -0.047348395
0.0031697717 -0.058096617 -0.006379196 -0.045730382 -0.10805144 -0.08992979 -0.035114687 -0.029663984
0.061524674 0.052897803 -0.040098444 0.0015260878 -0.0594583 -0.017943798 0.06857163 -0.073226854
-0.051942635 0.04968191 -0.05747748 -0.0831483 0.057322267 -0.04721623 0.006358723 0.050940458
0.026529942 -0.1027602 0.08193952 -0.09928656 0.03554605 -0.13233747 0.077463575 0.06810068
0.02389762 0.07699385 -0.046376687 0.010578197 0.077700846 -0.039014056 -0.0999158 -0.052971892
-0.033423703 -0.07750989 -0.07792987 0.0636469 0.042523295 -0.061259177 -0.010731466 0.030647615
0.09355063 0.0038908254 0.06704709 0.02877394 0.08507457 0.06510072 -0.004358629 0.02416198
-0.032320768 -0.058857236 -0.015128751 0.08440692 -0.08860443 -0.10135576 -0.037127066 0.071267866
-0.05135712 0.06084569 -0.06541652 0.013646315 0.11112971 -0.032953177 -0.007924004 0.018978676
-0.059691016 0.045219522 -0.1154248 0.039488893 0.048967544 0.060086727 0.042790543 0.04724342
0.063045435 -0.06667399 -0.0100415265 -0.032261126 -0.043275256 0.060026955 -0.007527795 0.08507811
0.020589104 0.074370615 -0.05737016 0.07790744 0.1091321 0.057039946 -0.054036636 0.08132376
0.02284777 -0.03427583 -0.012474076 -0.015435587 0.14304392 0.02697124 0.12795235 0.016188977
-0.0051351856 0.106230564 0.10713727 0.020757053 0.0041862377 0.009590253 0.034633193 0.11374764
-0.053256836 0.00097555027 0.04717191 0.014702603 -0.040339995 0.084013276 -0.058854356 -0.024085186
0.066852674 -0.075102694 -0.02388428 -0.08170028 -0.012815646 -0.029431881 0.06584933 -0.11262481
-0.038659852 -0.15829472 0.04324484 -0.024463765 -0.047974 -0.10273495 0.009482807 0.0493128
0.06486648 0.13939911 -0.018664882 -0.05511014 -0.011258011 -0.030424625 0.11170844 0.07632005
-0.0510423 0.060396366 0.10425839 0.017111177 0.048453465 0.078657016 0.12069794 -0.085630655

net.2.bias f4 [64]
00000000: 3432 58bd fecb 14bd c2d5 f13c 8ae0 e53d
00000010: 4b38 e43d f23d e9bd 45d5 f9bc 7f93 6abd
00000020: 622b eb3d f2bf 42bd cc75 e8bb 0055 4cbc
00000030: 2d11 bcbc 4929 5b3d 220d ef3c 05e8 f4ba
00000040: 2ba5 48bd 87fd 1a3c a319 c43b b88a 183c
00000050: 1d94 76bd 926f 88bd 9801 e2bc 0572 123c
00000060: 843b a93c 16ea 603d 697c 4ebd d151 9d3d
00000070: 50e2 dcbd ec94 853d 2a72 d63d 7a2c 543d
00000080: 41c7 513d 5e6e 0cbd 9850 a9bc 2f3f b5bd
00000090: e03e c1bd 00a5 acbd 2627 31bd 52dc bdbc
000000a0: f8e3 09bd 4780 2d3d db5b 253c 486e 91bd
000000b0: 1777 dabd ae1e c33c 3258 ac3d 72c2 a53b
000000c0: 2ba0 653d 306c 5f3d 6c35 8ebb c6b0 813d
000000d0: f9e7 023e 99b3 043d 1bc2 9abd 0e8e c2bc
000000e0: 89a3 053c 3685 043c 8603 c43d 2768 863d
000000f0: 79ad 8a3d 20f8 4dbc 2388 673d efaf 493c
-0.052782252 -0.036327355 0.029520873 0.11224468 0.111435495 -0.11388768 -0.030497203 -0.05726957
0.11482884 -0.047546335 -0.0070941206 -0.012471437 -0.022957409 0.05350617 0.029181067 -0.001868487
-0.04898564 0.00945986 0.0059845014 0.009310417 -0.060199846 -0.06661905 -0.02758865 0.008938317
0.020658262 0.05491074 -0.050411616 0.07681621 -0.10785353 0.06522545 0.10470994 0.05180023
0.051215414 -0.03428494 -0.020668313 -0.08849942 -0.094358206 -0.08429909 -0.043250225 -0.023176346
-0.033664674 0.042358663 0.010092701 -0.071011126 -0.10667246 0.02381834 0.084152594 0.00505858
0.05606095 0.054546535 -0.0043398645 0.06332545 0.12783803 0.03239784 -0.07556554 -0.023749378
0.008156666 0.008088401 0.095709845 0.06562834 0.067713685 -0.012571365 0.056526314 0.012310012

fc.weight f4 [2, 64]
00000000: b6db b7bd 3678 e7bd 5b5b 973d 81d3 8e3d
00000010: 6e9e 083e 836c 783d 0956 efbd 2f8e d5bd
00000020: 95a5 e53a d65e e3bd 1368 03bd 2d03 8bbd
00000030: 93e7 e5bb fe50 87bc 9f43 75bd f99b d63d
00000040: a9d1 92bd d3c2 0e3e f022 0e3e 6246 15ba
00000050: c909 50bd f8d6 223d e4e1 e73d 241c fdbc
00000060: 2172 fb3d f5ff a1bd f4c8 db3d ea62 03bd
00000070: f950 9d3d 402a ad3d 7ee9 80bd 1aff 8bbd
00000080: f12a dc3d c108 13bd 2bbc c9bc 88ec 00be
00000090: 0271 82bd effe 02bd 823d 1b3d 6b1a cbbb
000000a0: b658 193b 05c8 95bd ecd5 f3bc b95f 7bbd
000000b0: 2255 cebd 0f93 cc3c 09c1 243e 243c c9bd
000000c0: 3f2b c8bd d232 033e ab91 573c 8229 8a3d
000000d0: c396 903d b059 8abc 82d4 6dbd 982c 493c
000000e0: 224b 45bd 7218 8bbc d09b 9d3d 30dd 31bc
000000f0: 58bb 823d 07a8 ef3d 5f16 c5bd 3e65 30bd
00000100: c0c0 893d ba41 edbd 69ed 5abd 3188 eabd
00000110: 8a29 3bbd bc90 993d bd56 8abd 2f2e d23c
00000120: 9e7c ebbd d6a5 c43d 7eeb 883d cf1b 423d
00000130: ff1d d5bc cf72 a23d 5bf2 41bc 8b7b 39bd
00000140: 3546 fcbd 3ad0 d43d 688e 6cbc abe5 8bbd
00000150: 153a 3d3d cca4 283d 5084 e4bd 229e 083d
00000160: fd4e 3abd df8d 9c3c 5dac 383d 3c28 a2bd
00000170: 41fa cd3d 32c6 6bbc 4dbf fdbd 1d4a f239
00000180: 93a0 143d 3baf 3cbd d8a9 a9bc c22e 23bd
00000190: 2cd6 97bd 3599 7f3d 1028 d2bd 6e67 15be
000001a0: 2351 aa3b c736 833d 22ff 9c3b 7c25 303d
000001b0: 9ec8 22bd 51db 4a3d e6dd 363d 3928 dd3d
000001c0: 7100 7fbd 9e7c 90bd 18ca 5e3d 3448 b53d
000001d0: c965 99bd b7f0 153c 260e dc3d 8dcf 093d
000001e0: 5f23 d53d a1be d23d dc00 05be 9d46 d13d
000001f0: 8a18 b4bd 628c 7b3d 4920 34bd 4819 14be
-0.089774534 -0.11302225 0.073904715 0.06973935 0.13341686 0.06065036 -0.11686332 -0.1042751
0.0017520661 -0.11102073 -0.032081675 -0.06787715 -0.007016131 -0.016518112 -0.05987894 0.10478968
-0.07168896 0.13941507 0.13880515 -0.0005694387 -0.05079058 0.03975579 0.11322382 -0.030897208
0.12277628 -0.07910148 0.10731688 -0.032076754 0.0768146 0.08455324 -0.06294535 -0.06835766
0.10750378 -0.03589702 -0.024625858 -0.1259023 -0.06369211 -0.031981405 0.037900455 -0.0061982176
0.0023398823 -0.07313541 -0.029765092 -0.061370585 -0.100748315 0.024972467 0.16089262 -0.09825924
-0.097738735 0.12812355 0.013157289 0.06746198 0.070600055 -0.01688847 -0.05806399 0.012278698
-0.048167355 -0.01697943 0.076957345 -0.010855958 0.06383389 0.117019705 -0.096234076 -0.043065302
0.06726217 -0.11584802 -0.05344907 -0.11451758 -0.04569391 0.07498309 -0.06754825 0.025656788
-0.11498378 0.09601943 0.066855416 0.0473898 -0.02601528 0.07932054 -0.011837567 -0.045283835
-0.123180784 0.103912786 -0.014438249 -0.06830915 0.04619797 0.041172788 -0.11158049 0.033353932
-0.045485485 0.019110618 0.045086253 -0.0791783 0.10057498 -0.014390515 -0.12390003 0.00046213056
0.036285948 -0.04606555 -0.02071087 -0.039839514 -0.07413897 0.06240197 -0.102615476 -0.14590237
0.0051976605 0.06406932 0.0047911564 0.043004498 -0.039742105 0.049525563 0.044645213 0.107986875
-0.06225628 -0.07055019 0.05439195 0.08851662 -0.07490117 0.009151629 0.10744886 0.0336452
0.10407137 0.10290266 -0.12988609 0.102185465 -0.08793743 0.061413176 -0.043976102 -0.14462769

fc.bias f4 [2]
00000000: 9f90 c9bd b173 7c3d
-0.098420374 0.06163377
