Project/runs/cnn1d_testpos_win256/best.pt (torch, 46577 bytes, 6 tensors)

net.0.weight f4 [32, 3, 5]
00000000: 5e9c 793e 4c34 363e a7c4 943e b4a6 053e
00000010: 29ee 493e 4a5b f03d a7f5 5ebd d7a4 343e
00000020: 63f2 8b3d 4f23 20be 44cf a7bd d396 10be
00000030: 64c7 64bd 1fdf 6f3e 3694 09be a982 33bd
00000040: c2c9 8fbd 70cd 173e 3912 103a 2a79 bdbd
00000050: d319 bfbd 73fc e23b 13ac 5f3e 9479 973e
00000060: f88e 893e 2f75 18be 7dee 473e 3e03 323d
00000070: 594a 993e 5206 963c 5833 55be 4c18 19be
00000080: 1a1c 43be 8e4c a23d 1b4c fc3d 2560 6bbe
00000090: b3c9 193e 8d11 15bd 9870 663e a334 873e
000000a0: f91e 1ebe 6de4 1a3e adcf 253e 4f07 573e
000000b0: d6bf 543e 30e1 383e 6e8f 53be 5bfa 86be
000000c0: a97d 0f3e 968a a73a 3822 51be 972a 553e
000000d0: be12 bdbd d694 d6bd 95b0 f5bd 45d1 543c
000000e0: ef74 7fbe b27d 6b3e 7595 9d3d 1853 d63d
000000f0: 6fcb c4bd 94d5 043e 5fa7 88bd c1ce e3bb
00000100: 38fd e33d 09d0 8bbe 5d2f 04be 945c 51be
00000110: d6c2 48be 3bce 863c 0e04 803e c9a4 893d
00000120: 3a9e 283e a1b2 263a fe17 15be 3376 80be
00000130: d649 73be 8919 6f3d cc68 3fbd ac25 b9bd
00000140: 6ee3 913d 62ae fc3d af5e 80be 4336 01be
00000150: 33cd 823d 40af d0bc 2392 363e f6fd e93d
00000160: 7e6b 19be fa5b 71bd e606 25be 985e cfbd
00000170: 9a70 bc3c 6f94 70be 0b9a 693d c898 8c3c
00000180: 0328 363e 4f5b fc3c 9355 8d3d 99be 0dbe
00000190: 7e3e a1bd 0db9 f7bd 2a94 3e3e 2a1d 88be
000001a0: edb0 c13d eaf3 003e 715f 39be 11df 403e
000001b0: e6da 90bd a2d9 6a3d e4e4 3e3e 3bb0 433e
000001c0: 8daf 903e 31af 6f3e 9c76 0cbe f06c b83d
000001d0: 5e7f b2bd d67a b33d 6024 123e 485f 833e
000001e0: fafe c03a 3aa3 a53e 81ec 7e3e 5ab8 153e
000001f0: 68c6 ac3d 5182 253e 3fe1 a43e e086 78bd
00000200: d340 6d3e 610d e7bd 5dfa a73e 262a 08be
00000210: 3ceb 843e 4f5c 24be c453 9a3e ea4e 6e3e
00000220: 2014 21be 7ccc 673e 653c 323e 2dcf 823e
00000230: b6ce d33d 894f 8abe 1804 b73d a7e3 db3d
00000240: 165e 323e 7542 64bc 8078 453d 83b5 5d3e
00000250: 4e0e 663e e68f 723d efe5 5cbd 7adf 0c3c
00000260: 725b 3ebe 0226 13bc 5412 043a 282c 6dbe
00000270: 4589 4cbe 1d14 183e 959c 2b3e 1508 863e
00000280: 0451 953c b671 5d3e 75e5 6d3e 20fb 3d3d
00000290: 9f14 3d3d 5fac 423d 79b1 a23e 8b44 a5bd
000002a0: 8c2b 9b3d e285 7a3e 157e 5b3a feaf 363e
000002b0: 7e29 793e b675 033e 7c96 56bd a7c9 2f3e
000002c0: 7b91 963e 0066 a4bd 836b cabc 3481 823d
000002d0: 49fc 42be f3a1 883c 96ef 833e 30ca 7b3b
000002e0: cc50 4dbe 36ff 8abd a340 903d 1755 043e
000002f0: 9617 9dbc 6720 62be 1f14 81bd 30aa 173e
00000300: 8080 af3d d8b0 153e b61d 9d3d eb9c 9b3c
00000310: ae4a b13b 8479 823e 3bfb 093d f01f 6b3e
00000320: 87fd 75be 1ac1 6cbe 20ce 233e a5c7 94be
00000330: d5ea 0b3e e36d a1bd 814c 43be db67 f4bc
00000340: e68d 1dbb e432 883e 9f5e 003e 7d24 05be
00000350: 957c 293d e4ae 3dbe 6964 9dbe 29b3 643e
00000360: 6a54 81be ec3b e3bd a429 003e 6429 8e3d
00000370: 98c9 95be 8b07 8dbd af9f 9a3d 586b dabd
00000380: 9f72 87be d88d 45be ffba 273e a74b ffbb
00000390: 9af9 1fbe 1319 6cbe 93cb 473e f280 07be
000003a0: f434 36be 1bf0 443e 5701 803e e10a 98bc
000003b0: 6a53 4f3e 0e21 bd3c 4a0b 90bd 15f0 13be
000003c0: 1395 ad3c c961 083e c929 503e 819b 97bc
000003d0: 2ae6 68bc 080b 95bd 4084 bdbd 6928 2b3c
000003e0: 28f2 5ebe e12c 6f3d 7239 973e 2dfa 62bd
000003f0: 6f16 1b3d cfdf 04be 86ac 763b 704c b93d
0.24376056 0.17793387 0.29056284 0.13051873 0.19719757 0.11736162 -0.05443349 0.17641006
0.06833341 -0.15638469 -0.0819383 -0.14120035 -0.055854216 0.23424958 -0.13435444 -0.04382578
-0.07020904 0.14824462 0.00054958794 -0.09251626 -0.093310975 0.006927067 0.21842985 0.29584944
0.2686689 -0.14888452 0.1952457 0.043460123 0.29939535 0.01831356 -0.20820367 -0.14950675
-0.19053689 0.07924758 0.123192035 -0.22985895 0.15018348 -0.03639369 0.22503889 0.26407346
-0.15441503 0.151262 0.16192503 0.20998882 0.20776305 0.18054652 -0.20660183 -0.2636288
0.1401278 0.0012782391 -0.2042321 0.20817028 -0.092320904 -0.10477607 -0.11996571 0.012989347
-0.2494695 0.22997168 0.07694522 0.104650676 -0.096091144 0.12972099 -0.066725485 -0.006952137
0.11132282 -0.27307156 -0.12908693 -0.20445472 -0.19605574 0.01645576 0.25003093 0.067208834
0.16466609 0.0006359015 -0.14559934 -0.2509018 -0.23758635 0.05837396 -0.0467308 -0.090403885
0.07123457 0.123379484 -0.25072238 -0.12618355 0.06386795 -0.02547419 0.17829184 0.11425392
-0.14982411 -0.058925606 -0.16115913 -0.10125464 0.023002911 -0.23494123 0.057031672 0.017162696
0.17788701 0.030805258 0.069010876 -0.13842238 -0.078732476 -0.120958425 0.18611208 -0.2658475
0.09457574 0.12593046 -0.18102814 0.18835093 -0.070730016 0.057336457 0.18642002 0.19110195
0.28258935 0.23406674 -0.13717121 0.09005153 -0.087156996 0.087636635 0.14271688 0.2565863
0.0014724426 0.32351094 0.24894907 0.14621106 0.084362805 0.16162993 0.322031 -0.0606755
0.2316926 -0.11281849 0.328082 -0.13297328 0.2596072 -0.16050838 0.30142033 0.23272291
-0.15730333 0.22636598 0.17405851 0.25548688 0.10342161 -0.27013806 0.08936328 0.107367806
0.17418703 -0.01393186 0.04821062 0.21651272 0.22466394 0.059219263 -0.05393022 0.008598203
-0.18589571 -0.00898123 0.00050381315 -0.23161376 -0.19974239 0.14851423 0.1675895 0.2617804
0.018227108 0.21625409 0.23232062 0.04638207 0.046162244 0.047527667 0.31776026 -0.08069714
0.07576665 0.24465135 0.00083729747 0.17840573 0.24332234 0.12837872 -0.052389607 0.17166768
0.29407868 -0.080272675 -0.024709469 0.063723 -0.19041552 0.016678786 0.25768727 0.0038420074
-0.20050353 -0.06786959 0.070435785 0.12923084 -0.019176286 -0.22082673 -0.06302666 0.14811015
0.08569431 0.14618242 0.076716825 0.018995723 0.005410514 0.25483334 0.033686858 0.22961402
-0.24022494 -0.23120537 0.15996599 -0.29058567 0.136638 -0.07882287 -0.19072153 -0.029834678
-0.0024040877 0.26601326 0.12536095 -0.130022 0.041378576 -0.18523747 -0.3074067 0.22333969
-0.25259715 -0.110954136 0.12515885 0.069414884 -0.29255366 -0.06886204 0.075499885 -0.106650054
-0.26454636 -0.1929239 0.16379927 -0.007791001 -0.15622559 -0.2305644 0.19511251 -0.13232782
-0.17793638 0.19232218 0.25001022 -0.018559875 0.20246664 0.02308705 -0.07033403 -0.14447053
0.021189248 0.13318552 0.2032844 -0.018506767 -0.014215032 -0.07277495 -0.0925374 0.010446646
-0.21772063 0.05839241 0.29536015 -0.055414367 0.03786319 -0.12976001 0.0037639453 0.090477824

net.0.bias f4 [32]
00000000: e48d c1bd d4ac d7bd 3156 a93d 5078 4ebe
00000010: 6e90 9a3d aa40 85bd 7d81 33be 4bb2 173e
00000020: 3bed 9fbd e199 943e e498 37bc d464 76bd
00000030: 59d3 2a3e 5718 383e 9991 723e 9dbc 123c
00000040: ef5e 513e 074e 913e c14d 8dbd 9600 e23d
00000050: 4fa2 e63c 8724 f23d 5d3b 8c3e 76c1 ab3d
00000060: 5f8a eebd 747d 223c d8b3 103e a122 623e
00000070: 2324 85bd b498 3fbe 8efa 793e f715 c83d
-0.094508916 -0.10531011 0.08268393 -0.20163083 0.07547079 -0.06506474 -0.17529865 0.14814107
-0.0780892 0.2902365 -0.011205886 -0.06015475 0.16682185 0.17978035 0.23688354 0.008956102
0.2044637 0.28379843 -0.06899596 0.11035268 0.028153567 0.11823373 0.2738904 0.08386509
-0.11647486 0.009917606 0.14131105 0.22083522 -0.06501033 -0.18710595 0.24411985 0.097698145

net.2.weight f4 [64, 32, 5]
00000000: 6432 d13d 7b53 0dbd 09c0 a23d a4a3 16bd
00000010: c792 883d 528e 13bd 0901 4bbd 7a9f b23c
00000020: 419a 0e3d ca12 a23c 2a36 5d3d 59d2 923c
00000030: bcd7 58bd b423 84bb db67 cebc 03ae 533d
00000040: 87ad 5dbc 3f11 aa3d ff57 55bd 5f2e 87bd
00000050: a20e 983d 6b43 8e3d 5863 19bd 2c90 d63d
00000060: 3e18 6b3d 6fe4 9cbd 0ae7 42bd 0eea a8bc
00000070: 104a 92bd 99e1 84bd 82b9 403d 50e0 d5bc
00000080: 9b43 eebb 0782 8dbd 6e68 6abd 6dfc 273d
00000090: f876 79bd f24a 9d3d c614 7b3d a34e bb3d
000000a0: 9dd0 7b3d 5bd0 573d e7ad 923c 19ba d6bd
000000b0: a510 97bd 8010 713d 0cd5 0b3e c9ee 523d
000000c0: c6f0 183e 6657 b33d 29ec 953d 13ce 6fbb
000000d0: 3313 06bd 3ae5 a43d 3dc5 3d3c 4570 aabd
000000e0: 7caa 4c3c f587 aebc 2a44 d2bd 7343 31bd
000000f0: 4c0a 23bd 8e30 c33c 76f1 cc3d 527c 7e3d
00000100: 0003 1abd 7671 eb3c dab5 6a3d f012 8f3d
00000110: ec0a 3f3d c265 9b3d d7d6 f63c f3c7 10bd
00000120: 4a72 2a3d a0ec 9bbd 0589 aabc e9bc 94bd
00000130: 8bf7 26be cbd4 edbd 9df9 c0bd 120e 11be
00000140: 844c 12bd cafc b43c 0e5a 28bd 5caa c33d
00000150: 69e4 6c3d 7e30 a83c e057 fa3d dbc1 1c3d
00000160: 71de a83d 2eb0 a73d 25bf 5ebc f9dd 503d
00000170: a61e a1bd 6c00 0fbc 3b77 b1bd 8739 313d
00000180: 3a17 003e b940 9c3d 577d fc3d 65f5 053e
00000190: d3c6 b13c a953 a8bd 6f34 02be b24f 553c
000001a0: 15ae fdbb 10a3 eebc 0165 78bd b321 14be
000001b0: c3c7 40bd e465 81bd f5e3 ef3d e18a 243d
000001c0: 0de1 af3d 3a11 463d ee96 2b3d 7d15 52bd
000001d0: a192 d0bc 9dd8 5e3d de88 243d 0af5 2bbd
000001e0: e0e4 823d b60e 1b3e 02b2 863d d12c 313e
000001f0: 0472 253e 4190 19bd 344b 6bbd b4c3 79bd
00000200: 95ef 52bd 1ad3 f7bc c38e 953d 78c8 8f3d
00000210: c3d9 0b3e e6f9 8a3d b104 a33d b4e8 023d
00000220: 9818 593b 5193 0e3d 7c23 6dba 2754 1d3e
00000230: dc71 483c 9b01 9cbd 1912 0f3c 07ec a6bd
00000240: 91e1 babd 531f 3cbd 14c1 debd f492 91bd
00000250: c191 123d 0cc1 aebd f036 59bb 2adb 9abc
00000260: 999a ac3b c042 e83d da48 f23b db85 a13c
00000270: c9a1 273d 5f73 253d 0df6 c53d 3c63 bb3b
00000280: 26f0 ee3d eeeb 3e3d 2f0b 903c d774 fe3c
00000290: cc94 2a3d a6b4 953d 055d cf3d 6c10 cd3d
000002a0: 3d9d e83d 8bac c73d 7db1 fc3d 8c08 c13d
000002b0: cab1 3039 3797 d33d 5dbf 7e3d e629 7a3c
000002c0: 9747 7c3c 133c dbb9 17a8 263c 040b 8cbc
000002d0: 4e3e 5a3c b15f 3cbd 6bcb 013d 2d13 843d
000002e0: 0b21 83bc c4c7 8e3c db8e 0ebc 865a 16bd
000002f0: e7a6 6d3d 3066 543c ddbf 59bd f8e5 1bbd
00000300: d3fd ecbd f7ac 36be bb71 31be f0a9 0e3e
00000310: 5f62 163e e74e 463d ef8d ba3d ff84 debb
00000320: 7e56 1b3d 91a2 8b3d eb7e 043e 0f5c 183d
00000330: e66f d83d 5348 e13c 67c6 ff3d 847f 0c3e
00000340: 97d6 a63d 6546 293d 0987 e1bb 814d 01bc
00000350: 097b 513d 13e6 b33d 51ad 943d 73d8 883d
00000360: c5e0 f53d d998 d33d 4a9f b03d 4af6 813d
00000370: 4771 033c 0a9c 23bd fb60 593d 7b4b e83d
00000380: 4517 b3bc 0274 64bc ffc2 b93c c4a7 cbbd
00000390: fdd9 41bd bd50 f1bd d448 18bd 2d82 6d3b
000003a0: 5699 873b 0e47 ba3d 565f f43c 3820 44bc
000003b0: af48 fcbc 06e6 863a 1539 bcbc 5e8b f83b
000003c0: 0c22 babd 6e9c 88bd 76ad 80bd 1d46 57bc
000003d0: ff30 39bd b6a2 acbd b4ce ecbd ddaf 16be
000003e0: 6dd3 b5bd 838f a8bc f40f 8f3d fcb6 163d
000003f0: 7fb7 6d3d c760 8a3d c791 c2bc e103 c5bd
0.102146894 -0.03450344 0.07946784 -0.036777154 0.066686206 -0.0360244 -0.049561534 0.02180456
0.034815077 0.01978435 0.054006733 0.017922567 -0.052940115 -0.0040325765 -0.025196007 0.051679622
-0.013530142 0.08304071 -0.052085873 -0.066006415 0.07424666 0.06946453 -0.037448257 0.10476717
0.057396166 -0.07660758 -0.047583617 -0.020619418 -0.071430326 -0.06488342 0.047051914 -0.026107937
-0.007271243 -0.069095664 -0.0572285 0.041012216 -0.060904473 0.0768031 0.061299108 0.09145858
0.061478246 0.052688938 0.017905189 -0.10484714 -0.073762216 0.058853626 0.1365549 0.051497255
0.14935598 0.08756904 0.073204346 -0.0036591336 -0.032733154 0.08051534 0.01158267 -0.08322195
0.0124918185 -0.021305064 -0.102669075 -0.043277215 -0.03980474 0.023826864 0.100069925 0.06213028
-0.037600517 0.028740626 0.057302333 0.06986034 0.046641275 0.07587768 0.03013174 -0.035346936
0.0416129 -0.07613492 -0.02081729 -0.07262594 -0.16305368 -0.11612853 -0.0942261 -0.14165524
-0.035717502 0.022093195 -0.041101508 0.09553978 0.057835016 0.020530935 0.12223792 0.038270812
0.08245552 0.081879005 -0.013595377 0.05099294 -0.07867174 -0.008728128 -0.086653195 0.043267753
0.1250886 0.07629532 0.12328594 0.13081892 0.021701252 -0.08219082 -0.12715314 0.013019489
-0.0077416995 -0.029130489 -0.0606432 -0.1446598 -0.047065508 -0.06318262 0.11713401 0.040171508
0.08587847 0.048356272 0.041891985 -0.051290024 -0.025460543 0.054405797 0.04016959 -0.041981734
0.06391311 0.1514233 0.06576921 0.17302252 0.16156775 -0.037491087 -0.057444766 -0.060977653
-0.051498014 -0.030252028 0.0730262 0.07020658 0.13657288 0.067859456 0.07959879 0.031960204
0.0033126231 0.03480846 -0.000904612 0.15364133 0.012234177 -0.07617494 0.008732342 -0.081504874
-0.09125055 -0.04592831 -0.108766705 -0.07108107 0.035783533 -0.085329145 -0.0033144318 -0.018903334
0.005267453 0.113408566 0.0073939385 0.019717148 0.040925775 0.04039323 0.09666071 0.005718617
0.116668984 0.04661172 0.017583458 0.031061573 0.04164581 0.073098466 0.10125164 0.10012898
0.11358116 0.09749707 0.12338541 0.09425458 0.000168509 0.10331576 0.062194217 0.015268778
0.015397928 -0.00041815694 0.010171912 -0.017095096 0.013320519 -0.045989696 0.031688135 0.0644897
-0.016006967 0.01742924 -0.008701052 -0.036707424 0.0580205 0.0129638165 -0.05316149 -0.038061112
-0.11571851 -0.17839418 -0.17328541 0.13932014 0.14685963 0.04841509 0.09109103 -0.0067907567
0.037924282 0.068181165 0.1293904 0.03719717 0.10568218 0.027500307 0.12489014 0.13720518
0.081463985 0.0413269 -0.0068825525 -0.0078920135 0.051142726 0.087841175 0.0725962 0.066819094
0.12005762 0.10331888 0.08624132 0.06345804 0.008022613 -0.039943732 0.053071003 0.11342522
-0.021861682 -0.013943674 0.02267599 -0.09944108 -0.04732703 -0.11782978 -0.03717883 0.003624092
0.004138152 0.09095584 0.029830616 -0.011970572 -0.030796377 0.0010291941 -0.022976438 0.0075849732
-0.09088525 -0.066704616 -0.06283085 -0.013139275 -0.045212742 -0.08429472 -0.11562863 -0.14715524
-0.08878217 -0.020576244 0.06985465 0.0367956 0.058036324 0.0675674 -0.023751153 -0.096198805

net.2.bias f4 [64]
00000000: bd5e 333d 4c73 69ba 8e52 9f3d b877 963d
00000010: c0a3 15bc 692c eabb 0a30 033d 5d4d 3d3d
00000020: 9f3b 7c3d 35e5 e63b 53b0 4fbd 9a45 ecbc
00000030: 3979 463d 404f 373d dc53 a43d a781 223d
00000040: 431b 833d 5ae2 613d f392 a9bd f3ac 1e3c
00000050: 5126 6a3d 546c 143d 97a7 263c 5a52 2abc
00000060: f309 a3bd 9c1b 173d 76a1 5ebd dbac 12bd
00000070: 808f 31bd 90ea 3c3d ff54 343d b216 43bd
00000080: 9dbe 08bd 9d3f 69bd 3fcf 10bc 8162 11bc
00000090: 421f ffbb b4e3 a0bd 67a4 943d 9384 e7bc
000000a0: 55fa 8ebd e682 93bd 0122 893d 96ce 5abd
000000b0: 63b5 133d f618 19bb a3c2 b53c 12f4 04bd
000000c0: b8d7 a0bd fc55 593d 8001 693d 6d25 b13d
000000d0: 30c7 d1bc 03f2 e93c 001f 3dbd c3c4 4c3d
000000e0: f2db 563d a610 0fbd c823 a93d ef50 ac3c
000000f0: bf30 3e3d 7d82 813a 819c b23d d33f 73bd
0.04379152 -0.0008905425 0.07779418 0.07347053 -0.009133279 -0.0071464074 0.032028235 0.046216357
0.061580297 0.0070463666 -0.050705265 -0.028841782 0.04845545 0.044753313 0.080238074 0.039674427
0.06401684 0.055147506 -0.082799815 0.009684789 0.057165448 0.036236122 0.0101717925 -0.010395611
-0.07960882 0.036891565 -0.0543532 -0.03580938 -0.043349743 0.046122134 0.04402637 -0.047629066
-0.033384908 -0.056945432 -0.008838474 -0.008873583 -0.0077857086 -0.07855931 0.0725792 -0.028261459
-0.06981341 -0.07202701 0.06695939 -0.053419672 0.036061656 -0.0023360825 0.022187537 -0.032459326
-0.07853645 0.053060517 0.056886196 0.086497165 -0.025607675 0.028557783 -0.046172142 0.049992334
0.05245585 -0.034927987 0.08258778 0.021034686 0.046433207 0.0009880807 0.08721257 -0.05938704

fc.weight f4 [2, 64]
00000000: 3f6f 393e e543 9abb 7d26 a93d 1e38 c23d
00000010: caa5 f53a 95ba c9bc 0c8f 1d3e db64 4ebe
00000020: e048 fd3d eb06 22bb 7d61 bf3d 92d1 853d
00000030: 15cb 953b 8f55 193e 0af7 f73d 2ec0 2dbe
00000040: ddca b43c 7f38 febd 7e13 a2bd 7f86 d33d
00000050: f93e 10be fb66 b7bd 84da a3bd b228 acbd
00000060: b26d ad3d 9626 1abe d7d6 8ebd 385e 23bd
00000070: 00e4 90bd b9f1 853d 09cd 0f3d 1491 38bd
00000080: 2133 4b3d 6cb5 bdbd c417 67bb 287d a4bd
00000090: 5fd1 563e ab82 db3d d4bd 19be fe1f f9bd
000000a0: 62fe 1abd 8c4e 97bd 1311 a4bd fee7 1abd
000000b0: f063 0e3e 6d4a b33d 0ae0 1cbd 9b56 1a3e
000000c0: 49cb ebbd 54a1 873d 2803 48bd 6556 fc3c
000000d0: d4f9 7ebd 1bb8 05be 14e4 b5bd aa63 1d3d
000000e0: 2f63 bd3d 187b 6e3d 8a07 1b3e 365a 073d
000000f0: db89 a93d 79e5 fd3d 32de 153e c48c 45bd
00000100: 5578 debc 6a51 473e 58e2 e3bc abf2 d1bd
00000110: dd96 3cbe a71f c03d 4af4 a5bc f93c c53d
00000120: 7c89 bfbd 580b 40bc 0b16 3bbd 0e55 26bd
00000130: c2cb 20be 51ae 2fbe a26e d8bd 5f78 b73d
00000140: 1607 9e3d 96bf f03d d877 c63d edc1 06be
00000150: a1fb 373e 580d 893c 8472 d93d 3179 243d
00000160: 51d9 a83d 284c 9c3d eb0b c73d 7461 0a3d
00000170: b2d6 2b3c aa74 be3d 5586 2e3d 898e 133e
00000180: 91e0 303e 180b 43bd 1c54 1b3d 7cd6 9fbd
00000190: ae89 8f3c 8dac e23d 1bf2 0f3e 0e17 a0bc
000001a0: b316 d93d c195 2ebd 09ce 223e 1e09 3b3d
000001b0: ca10 dfbc 03a0 2ebe 815d af3d 2a47 22be
000001c0: b9bc ebbd 8dc7 53be 8dd0 c73d e2f0 e7bd
000001d0: 731a 83bd 1c73 bd3d c322 b3bd c4ac d4bd
000001e0: d557 52be dc6e 99bd b7cb 23be fdb3 95bd
000001f0: 4866 d2bd 568b 7ebc 57c9 693d bae3 e13d
0.18108843 -0.0047078007 0.08259294 0.0948336 0.0018741426 -0.024625102 0.153866 -0.20155661
0.123674154 -0.0024723362 0.09344766 0.06534113 0.0045713284 0.14974044 0.12107666 -0.16967842
0.022069389 -0.124131195 -0.07913874 0.103283875 -0.14086522 -0.08955189 -0.08000663 -0.084061995
0.08468188 -0.15053782 -0.06974571 -0.039884776 -0.070747375 0.065402456 0.035107646 -0.045060232
0.049609307 -0.09263119 -0.0035261968 -0.08031684 0.20978306 0.10718282 -0.1501382 -0.12164305
-0.037840255 -0.073880285 -0.08011069 -0.0378189 0.1390531 0.0875443 -0.038299598 0.150721
-0.11513383 0.06622568 -0.048831135 0.030802915 -0.062249973 -0.13058512 -0.08881393 0.038425125
0.092474334 0.05822286 0.15139595 0.033045016 0.08278247 0.12397284 0.14635542 -0.048229948
-0.027156988 0.19464651 -0.02781789 -0.10251363 -0.18416925 0.09381037 -0.020258088 0.0963077
-0.09352395 -0.011721455 -0.04567532 -0.04060846 -0.15702727 -0.1715634 -0.105679765 0.08958506
0.07716195 0.11755292 0.09690827 -0.13159914 0.17967083 0.016729996 0.10617545 0.04015464
0.08244575 0.07631713 0.0971907 0.033784345 0.010488199 0.09299596 0.042608578 0.14409842
0.17273165 -0.047618 0.03792201 -0.078045815 0.017521705 0.11068068 0.140572 -0.019542243
0.10600033 -0.042623285 0.15898909 0.04566299 -0.027229685 -0.17053227 0.08562756 -0.1584746
-0.11510605 -0.20681591 0.09756575 -0.113252416 -0.06401529 0.09250471 -0.08746865 -0.10384515
-0.20541318 -0.07491848 -0.1599568 -0.07309721 -0.10273415 -0.01553615 0.05707678 0.110297635

fc.bias f4 [2]
00000000: ff28 2abd ee50 e23c
-0.041543003 0.02762648
