Project/runs/cnn1d_testpos_win512/best.pt (torch, 46577 bytes, 6 tensors)

net.0.weight f4 [32, 3, 5]
0	0xbe5a62b0	-0.21326709
1	0xbe64cc22	-0.22343495
2	0x3d8e7f2f	0.06957852
3	0xbdb5b043	-0.0887151
4	0x3e5e2ea1	0.21697475
5	0xbdfd516c	-0.123690456
6	0x3e86c57a	0.26322538
7	0x3d9a921b	0.07547399
8	0x3d4d4398	0.05011329
9	0x3e77719d	0.24164434
10	0xbe1bd034	-0.15216142
11	0x3d6937e7	0.05693808
12	0x3e3e9af1	0.18613793
13	0x3db30a91	0.0874225
14	0x3e0601c4	0.13086611
15	0x3e916800	0.28399658
16	0xbb38127e	-0.0028087194
17	0xbdb801d6	-0.08984725
18	0xbd024621	-0.03180516
19	0x3e922af3	0.28548393
20	0xbe8e30ce	-0.2777161
21	0xbe9aac01	-0.30209354
22	0x3dc01f66	0.09380989
23	0xbe2f696a	-0.17130056
24	0xbdd4d5ec	-0.10392365
25	0x3e693712	0.22774914
26	0x3e85320d	0.26014748
27	0x3d8424c9	0.06452329
28	0xbdd6b4eb	-0.10483726
29	0xbe0e2de9	-0.13884701
30	0x3e0cfae4	0.13767582
31	0x3ced1251	0.028939398
32	0x3e8f249e	0.27957624
33	0xbda1bc18	-0.07897204
34	0x3ca22872	0.019794676
35	0x3e8be3a1	0.27322105
36	0x3dd8776b	0.10569652
37	0x3e465812	0.19369534
38	0x3db10787	0.08644014
39	0x3e948968	0.29011083
40	0x3cd33b49	0.025785105
41	0x3e69670b	0.22793214
42	0xbca9433b	-0.02066194
43	0xbd52959f	-0.05141222
44	0xbc0ffb43	-0.008787933
45	0xbdb33388	-0.08750063
46	0x3e49988f	0.19687103
47	0xbe401aaa	-0.18760172
48	0xbdc67485	-0.09690193
49	0xbe7bc270	-0.24585891
50	0xbe390ef0	-0.18072104
51	0xbdeb05d8	-0.11475724
52	0xbe2be2cb	-0.16785733
53	0xbacba97e	-0.0015538184
54	0xbe6396f7	-0.22225557
55	0xbd38f76d	-0.04515784
56	0x3e5cc61b	0.21559946
57	0xbd982bd1	-0.07430232
58	0xbd60aa4a	-0.0548499
59	0x3da843ec	0.0821608
60	0x3d75b073	0.05998273
61	0xbb95e70c	-0.004574662
62	0x3d4c3aa5	0.049860615
63	0x3b8db8fc	0.0043250304
64	0x3dfc97dc	0.123336524
65	0xbe889125	-0.26673236
66	0x3dc72979	0.09724707
67	0x3b8552e9	0.0040687216
68	0xbda9c8b7	-0.082902364
69	0xbc173faf	-0.009231492
70	0xbe7e7727	-0.2485014
71	0xbdd38248	-0.103275836
72	0x3e1cca20	0.1531148
73	0x3dc521fa	0.09625621
74	0x3e7d3367	0.2472664
75	0xbe74614c	-0.23865241
76	0xbe4427e2	-0.19155839
77	0x3dc28005	0.09497074
78	0xbe4df05f	-0.20111226
79	0xbded6d14	-0.115930706
80	0xbde7b37e	-0.11313532
81	0xbd28804f	-0.04113799
82	0x3e119418	0.1421665
83	0xbd879341	-0.06619883
84	0xbd45eb57	-0.04832014
85	0xbe0e76f4	-0.13912565
86	0x3e611bb1	0.2198322
87	0x3da91b52	0.08257164
88	0x3d528f9b	0.051406484
89	0x3daaa471	0.08332146
90	0x3da7a23b	0.0818524
91	0xbe433e52	-0.19066742
92	0x3d526932	0.051369853
93	0x3e77c622	0.24196675
94	0x3e3ec074	0.18628103
95	0xbd9d6031	-0.07684363
96	0xbd8afe6a	-0.06786807
97	0x3e1c94d8	0.15291154
98	0xbe2b561e	-0.1673207
99	0x3e413b99	0.18870391
100	0xbe6bf0fa	-0.23041144
101	0x3be29105	0.0069142603
102	0xbdf3018e	-0.11865531
103	0xbe64a555	-0.22328694
104	0xbe7db1cb	-0.24774854
105	0x3e35a4f6	0.17738709
106	0x3e091621	0.13387348
107	0x3d05794b	0.032586377
108	0x3e033a7d	0.1281528
109	0x3d86334f	0.06552755
110	0xbdebcd9d	-0.11513827
111	0x3a110b86	0.0005533028
112	0xbc2b494a	-0.010454485
113	0x3e0bdd49	0.13658632
114	0x3e2107ff	0.15725707
115	0x3d82547b	0.063637696
116	0x3e69b0f1	0.22821404
117	0x3ea22acf	0.31673285
118	0x3e7849d7	0.24246918
119	0x3e8f4128	0.27979398
120	0xbd212624	-0.039343014
121	0x3c1aa132	0.009437846
122	0x3e681617	0.22664677
123	0xbc21cf27	-0.009876049
124	0x3e1d957a	0.15389052
125	0x3e56758c	0.20943278
126	0xbe4be00c	-0.19909686
127	0xbe917834	-0.2841202
128	0x3cbf7018	0.02336888
129	0x3e0031ee	0.12519047
130	0x3de8f3c6	0.11374621
131	0xbe7bb1cd	-0.24579544
132	0xbe4504a8	-0.19240057
133	0xbe38e459	-0.18055858
134	0xbd862322	-0.0654967
135	0x3e80889b	0.25104222
136	0xbe3bbf7e	-0.18334767
137	0xbbff9232	-0.0077994103
138	0xbd46c95d	-0.04853188
139	0xbcfbe76b	-0.030749997
140	0x3e5f1d16	0.21788439
141	0xbe0ab05b	-0.13543837
142	0x3e88d27d	0.2672309
143	0xbd8fa26c	-0.070134014
144	0x3e863767	0.26214144
145	0x3e7c5275	0.2464083
146	0xbe1c35c3	-0.15254883
147	0xbe00959a	-0.12557068
148	0x3e0efb3a	0.13963023
149	0xbdc3e31c	-0.09564802
150	0xbe118bd9	-0.14213504
151	0xbe68bce2	-0.22728303
152	0xbdb0a571	-0.086253054
153	0xbd366471	-0.044529382
154	0x3d6889fe	0.056772225
155	0x3e2f773d	0.1713533
156	0xbda7070a	-0.081556395
157	0x39e84bac	0.00044306868
158	0x3e936502	0.28788
159	0x3e91d5c5	0.28483406
160	0xbe772585	-0.24135406
161	0x3e2bebb4	0.16789132
162	0x3e555b3a	0.20835581
163	0x3d4c25c8	0.04984072
164	0x3d74aa4f	0.05973273
165	0x3e5482f6	0.20753083
166	0xbd839f0c	-0.0642682
167	0xbe355218	-0.17707098
168	0x3e250382	0.1611462
169	0x3e1ca0aa	0.15295663
170	0x3cc7ef2c	0.024406038
171	0xbe3fdcb0	-0.1873653
172	0x3e069129	0.13141312
173	0xbe1d77c8	-0.15377724
174	0xbe2282cd	-0.15870209
175	0xbe2204c9	-0.15822138
176	0xbe598214	-0.21241027
177	0x3d60f30f	0.0549193
178	0xbe5873fe	-0.21137998
179	0x3d505cec	0.050869867
180	0xbe4f90c7	-0.20270072
181	0xbd2f3901	-0.042778973
182	0x3e075a0a	0.13217941
183	0x3e2c2e2d	0.1681449
184	0x3e483c9d	0.19554372
185	0xbe0ef540	-0.13960743
186	0x3e95d0b3	0.29260787
187	0x3e361f9c	0.17785496
188	0x3e14a499	0.14515914
189	0x3e0470c7	0.12933646
190	0x3e30cb37	0.1726502
191	0x3dfafcff	0.122552864
192	0xbd925335	-0.07144777
193	0xbcc7de46	-0.02439798
194	0x3e5a3f68	0.2131325
195	0x3928991c	0.00016078766
196	0x3d14adee	0.036298685
197	0x3df4e391	0.11957467
198	0x3caee4fe	0.021349426
199	0x3e455bba	0.19273272
200	0x3e857eb8	0.2607324
201	0x3d4006fa	0.046881653
202	0x3c6b381f	0.014356642
203	0xbe031ed0	-0.12804723
204	0x3bbeeff5	0.005826945
205	0x3d0c8d4c	0.03431444
206	0x3a2f908e	0.00066972605
207	0xbd908e05	-0.07058338
208	0x3d6ed7b5	0.058311183
209	0xbdd8553f	-0.105631344
210	0xbe395be0	-0.18101454
211	0xbd8d5d2b	-0.06902536
212	0x3e98cc37	0.29843304
213	0x3d41ed45	0.04734542
214	0x3e84769c	0.25871742
215	0xbe68b30b	-0.2272455
216	0x3c11a99b	0.008890535
217	0x3de06d77	0.10958379
218	0x3d339c99	0.043850515
219	0xbe8070b4	-0.25085986
220	0xbe4a50a6	-0.19757327
221	0x3e0e82ea	0.13917127
222	0xbdbc2dd9	-0.09188432
223	0xbddc104a	-0.107452944
224	0x3e5ab080	0.21356392
225	0x3c170495	0.009217401
226	0x3df4282a	0.11921723
227	0x3e5e9d8d	0.21739788
228	0x3e832892	0.2561689
229	0x3d028ef2	0.031874605
230	0xbe29885a	-0.1655592
231	0xbe4eb45f	-0.20185994
232	0xbe1c09ee	-0.15238163
233	0x3e553e68	0.20824587
234	0x3e24fa15	0.16111024
235	0xbdd5e967	-0.104449086
236	0x3e156e21	0.14592792
237	0xbd987bfe	-0.07445525
238	0xbe245f4a	-0.16051975
239	0x3e2bdcad	0.167834
240	0xbe842130	-0.2580657
241	0x3e0670b9	0.13128938
242	0x3e1ffa7c	0.15622896
243	0xbe577089	-0.21039023
244	0xbdef707d	-0.11691377
245	0x3dfa2afd	0.122152306
246	0x3cbd7d64	0.02313108
247	0xbe51d907	-0.20492946
248	0xbe1aab64	-0.15104443
249	0x3d8a5b38	0.0675568
250	0xbe7f12e2	-0.24909547
251	0xbe89d099	-0.2691696
252	0xbdf87da0	-0.12133336
253	0xbe1f313a	-0.15546122
254	0x3e6d697c	0.2318477
255	0xbd800b9b	-0.062522136

net.0.bias f4 [32]
0	0xbdf54711	-0.119764455
1	0xbde1f6cd	-0.11033402
2	0xbe407a1d	-0.18796583
3	0x3cec9da9	0.028883772
4	0x3e359f54	0.1773656
5	0xbe5ae174	-0.21375066
6	0x3dd9c2d9	0.10632867
7	0xbdd299ad	-0.102832176
8	0x3e6d8eea	0.23199049
9	0x3d48d936	0.049035273
10	0x3e77d9ae	0.24204132
11	0xbe18772c	-0.1488921
12	0xbd987018	-0.07443255
13	0xbe01798a	-0.1264402
14	0xbe1fdd55	-0.15611775
15	0xbda0c8be	-0.078507885
16	0x3d97b074	0.07406703
17	0xbe0436b9	-0.129115
18	0x3dd14a39	0.10219235
19	0xbddcba99	-0.10777778
20	0xbe6c0330	-0.23048091
21	0x3e4a41d0	0.19751668
22	0x3c4d5385	0.01253212
23	0x3d89ed46	0.067347094
24	0xbd01e60a	-0.031713523
25	0x3e6c9fd8	0.2310785
26	0x3e377ffb	0.17919914
27	0x3e50bdf8	0.20384967
28	0x3e2ff940	0.17184925
29	0xbd42986e	-0.04750865
30	0xbcb4d381	-0.02207351
31	0xbd1227dd	-0.035682548

net.2.weight f4 [64, 32, 5]
0	0x3d978da2	0.07400061
1	0x3dcb56df	0.09928679
2	0x3da6b862	0.08140637
3	0x3d385d5d	0.045010913
4	0x3df38bac	0.11891875
5	0xbdfa5440	-0.12223101
6	0x3c724300	0.014786482
7	0xbdf094f8	-0.117471635
8	0xbdd06169	-0.101748295
9	0xbd71c70b	-0.059027713
10	0x3d768d40	0.0601933
11	0x3ac32f37	0.001489139
12	0x3d3e1924	0.046410695
13	0x3dee1612	0.11625303
14	0x3d47e182	0.048799045
15	0x3b49b82e	0.0030779946
16	0xbd71114e	-0.058854394
17	0x3ceb1644	0.02869714
18	0x3d1c0d69	0.038098726
19	0x3cb1d1c8	0.021706477
20	0xbc6bf472	-0.014401542
21	0xbd78d532	-0.060750194
22	0xbb05b874	-0.0020404132
23	0x3d0123a8	0.031528145
24	0xbb9eb90d	-0.004843837
25	0xbd15bd35	-0.036557395
26	0x3cd14108	0.025543705
27	0x3d0ffae0	0.035151362
28	0xbd48f89f	-0.04906523
29	0xbda63553	-0.081156395
30	0xbda9f4cf	-0.08298647
31	0x3c8e5457	0.0173742
32	0xbd404e3a	-0.046949603
33	0x3d84ffef	0.06494128
34	0xbd03d0ec	-0.032181665
35	0x3d11836e	0.03552573
36	0x3d953e21	0.07287241
37	0x3dd10354	0.10205713
38	0x3db55b0b	0.08855256
39	0x3d045762	0.032309897
40	0xbb5d08d2	-0.003372718
41	0x3cc00265	0.023438642
42	0xbd372c14	-0.04471977
43	0x3cbadd8f	0.022810725
44	0x3d45cbaa	0.048289932
45	0x3da2ef42	0.07955791
46	0x3d4aa771	0.04947609
47	0x3dc58e79	0.09646315
48	0xba8a7116	-0.0010562267
49	0x3cc1a48f	0.023638038
50	0x3d59b44d	0.053150464
51	0x3d58baec	0.052912638
52	0xbc03dbf2	-0.0080480445
53	0x3d1ceb0b	0.038310092
54	0x3dad7792	0.08470072
55	0xbd27b37a	-0.040942647
56	0x3d3c6660	0.04599607
57	0xbd996869	-0.07490618
58	0xbd9d3921	-0.07676912
59	0x3d39b477	0.04533812
60	0x3c134f28	0.00899104
61	0x3dcd730e	0.100317106
62	0x3dd358a2	0.1031964
63	0x3c94d593	0.018168246
64	0x3d90bed8	0.070676506
65	0x3c6b1cea	0.014350155
66	0x3cf03fc5	0.029327283
67	0x3dab2fe0	0.08358741
68	0x3ca702c1	0.020387055
69	0x3ba60334	0.0050663
70	0xbd80bd37	-0.0628609
71	0x3cf3a21e	0.02974039
72	0xbdbf821f	-0.093509905
73	0x3d1931b2	0.03740091
74	0xbd969079	-0.07351775
75	0xbd58b68a	-0.052908458
76	0xbbadf53d	-0.0053087757
77	0xbca1942d	-0.019723976
78	0xbd5d7985	-0.05407097
79	0xbc8294e3	-0.015940135
80	0x3cd7110f	0.026253251
81	0xbcbd6582	-0.023119692
82	0xbd67c87d	-0.056587685
83	0x3c115ce1	0.008872242
84	0x3d876ea4	0.066129
85	0xbd052b7d	-0.032512177
86	0xbd7080ce	-0.058716588
87	0xbce9759a	-0.02849846
88	0xbd5e1a53	-0.054224323
89	0xbb8d2927	-0.0043078843
90	0xbcc6f323	-0.024285858
91	0x3d8320bd	0.06402729
92	0x3d8405bf	0.064464085
93	0x3d7f3e84	0.06231548
94	0x3d0ae03f	0.033905264
95	0xbc945b81	-0.018110039
96	0xbd1c5842	-0.038170107
97	0xbd92119a	-0.071322635
98	0xbd9a39d6	-0.075305626
99	0xbd8bdfb3	-0.068297766
100	0xbd829ed8	-0.06377953
101	0xbd22d6d3	-0.039755654
102	0xbdda3e75	-0.10656444
103	0x3b3c9f78	0.0028781574
104	0x3d579cf9	0.052639935
105	0xbd6a24f1	-0.057164136
106	0xbc33eeb6	-0.010982206
107	0xbd10175b	-0.035178524
108	0xbd554bd0	-0.052074254
109	0x3c3ad804	0.011404041
110	0xbd05249c	-0.032505617
111	0xbc6dd452	-0.014515953
112	0xbd9c7d04	-0.07641032
113	0xbd77a9b2	-0.06046457
114	0xbd7cdd38	-0.06173441
115	0x3c77d94b	0.01512749
116	0xbd394c96	-0.045239054
117	0xbd62fbc1	-0.055415872
118	0xbc1ad4c5	-0.009450142
119	0xbdc3d261	-0.09561611
120	0x3dc4b151	0.09604133
121	0x3cdb53e5	0.026773402
122	0x3da91bae	0.082572326
123	0x3dce7324	0.10080555
124	0x3cb60f94	0.022224225
125	0x3d8f2655	0.06989733
126	0x3dccb60f	0.099956624
127	0x3c9d9b5c	0.01923912
128	0x3ddace53	0.106838845
129	0x3dacb3ac	0.08432707
130	0x3d05fba9	0.032710705
131	0x3d863362	0.06552769
132	0xbcd54453	-0.026033556
133	0xbd139b9a	-0.036037065
134	0x3d19e3ea	0.03757087
135	0xbd339ec8	-0.043852597
136	0x3c7920f8	0.015205614
137	0x3d0e044c	0.034672067
138	0xbd8ea304	-0.069646865
139	0xbd9efc25	-0.077629365
140	0xbcd140ed	-0.025543654
141	0xbd2a92f3	-0.041644048
142	0xbd4b911e	-0.04969894
143	0xbd1bb36b	-0.038012903
144	0x3bad59ca	0.0052902447
145	0x3d154010	0.036438048
146	0xbcf7f9d9	-0.030270504
147	0x3cd0e7fe	0.025501247
148	0x3dcb4b18	0.09926432
149	0xbccf50d0	-0.02530709
150	0x3c8ed465	0.017435262
151	0xbc947055	-0.01811997
152	0xbd10d036	-0.035354815
153	0xbd678919	-0.05652723
154	0xbc2bb485	-0.010480051
155	0x3b272455	0.0025503833
156	0xbd71a82e	-0.05899828
157	0xbd9c8d01	-0.07644082
158	0xbdc0e19e	-0.09418033
159	0xbcdb8270	-0.026795596
160	0xbc211fa2	-0.009834202
161	0xbd198b8a	-0.03748659
162	0xbd7e25a9	-0.062047634
163	0xbd05a16b	-0.032624643
164	0x3d2eaafc	0.042643532
165	0x3cb27cc4	0.021788009
166	0xbd87cdc6	-0.06631045
167	0xbc576711	-0.013147132
168	0x3cf16f5b	0.029472044
169	0xbcdfe8c8	-0.027332678
170	0xbdb4f72b	-0.08836206
171	0xbd4193ab	-0.047259968
172	0x3c023bd5	0.007948835
173	0xba92348e	-0.0011154579
174	0x3d19e1d6	0.03756889
175	0x3b32cb65	0.0027281877
176	0xbcf805a8	-0.030276135
177	0x3d38ea3b	0.045145255
178	0x3cb925d9	0.022601055
179	0x3d1e3714	0.038626745
180	0x3cf12a06	0.029438984
181	0xbcdb54fd	-0.026773924
182	0x3cee708f	0.029106406
183	0x3c8f3ac2	0.017484073
184	0x3d32f511	0.043690745
185	0x3c7d9d4d	0.015479398
186	0xbd360914	-0.04444225
187	0xbc7f0c6d	-0.015566927
188	0xbd359ba6	-0.04433789
189	0xbdade561	-0.08491016
190	0xbd81e771	-0.06342972
191	0xbdb0e769	-0.08637888
192	0x3c9eaa1c	0.019368224
193	0x3cc834d5	0.024439255
194	0xbc5a79a9	-0.01333467
195	0xbd825811	-0.063644536
196	0xbd9f5639	-0.077801175
197	0xbd5c61ef	-0.053804334
198	0xbd0503f2	-0.032474466
199	0xbd96e60e	-0.07368098
200	0x3c628e35	0.01382785
201	0x3d6f4791	0.05841786
202	0x3c343cbd	0.011000809
203	0xbca5bcaa	-0.020231564
204	0xbd1feb54	-0.039042786
205	0x3d024216	0.031801306
206	0xbd3014c3	-0.04298855
207	0xbd143cd2	-0.036190815
208	0xbcbbc647	-0.022921694
209	0xbcb0293d	-0.021504039
210	0x3b9f2bb2	0.004857504
211	0xbdb7510c	-0.08951005
212	0x3d3650da	0.0445107
213	0xbb8e7531	-0.0043474664
214	0x3d20532c	0.03914182
215	0xbd86476b	-0.06556591
216	0xbd276659	-0.04086909
217	0xbd18f7c7	-0.037345674
218	0x3d3172f7	0.04332253
219	0x3ba21c65	0.0049472325
220	0xbcf4aa96	-0.029866498
221	0xbcba9a54	-0.022778668
222	0xbc6d5b6f	-0.0144871315
223	0xbd01486e	-0.031563215
224	0x3c9b4d4f	0.018957762
225	0x3cdde118	0.027084872
226	0xbd060a51	-0.032724682
227	0xbcdbd912	-0.026836906
228	0x3d046e08	0.032331496
229	0x3d877a08	0.066150725
230	0xbd6d41d7	-0.057924118
231	0xbda82ae6	-0.08211307
232	0x3d69794b	0.05700044
233	0x3d2c6398	0.042087168
234	0x3ca8fd3c	0.020628564
235	0xbd58e5aa	-0.0529534
236	0x3d18674c	0.037207887
237	0x3d61eeff	0.055159565
238	0x3d718ced	0.058972288
239	0x3d1da0eb	0.03848354
240	0x3d7afef2	0.06127829
241	0x3c171037	0.0092201745
242	0xbd26b9f6	-0.04070469
243	0x3d89195c	0.0669429
244	0xbc6d3176	-0.014477124
245	0xbd48fcb6	-0.04906913
246	0x3cbe313f	0.023216842
247	0xbd909814	-0.070602566
248	0x3d83a081	0.06427098
249	0xbd925bd0	-0.07146418
250	0xbda18876	-0.07887356
251	0x3bb179d6	0.0054161353
252	0xbd97f612	-0.07419981
253	0xbd95ba9b	-0.07310983
254	0xbd320400	-0.043460846
255	0x3d1054a3	0.035236966

net.2.bias f4 [64]
0	0x396984f4	0.0002227014
1	0xbd6fa4ce	-0.05850678
2	0x3dc593ff	0.09647369
3	0xbd78449d	-0.06061231
4	0x3d0d9290	0.0345636
5	0xbd53db3a	-0.051722743
6	0xbd24f2fb	-0.040270787
7	0x3d47775a	0.048697807
8	0x3d837b98	0.06420058
9	0xbd6fd4df	-0.05855262
10	0xb9af56f8	-0.00033443398
11	0xbca829a6	-0.020527672
12	0xbd08bebb	-0.03338502
13	0xbd351b87	-0.044215705
14	0x3d487ae9	0.04894534
15	0x3db0fd09	0.086420126
16	0x3d7b5357	0.061358776
17	0xbd87a5a9	-0.06623394
18	0xbc9efd13	-0.019407785
19	0x3d10b798	0.03533134
20	0x3cd9b82e	0.026577082
21	0xbd93caec	-0.07216439
22	0x3d5bcdaf	0.053662952
23	0x3d79898a	0.060922183
24	0x3dbf538d	0.09342108
25	0x3d59b2b4	0.05314894
26	0xbb4e31d0	-0.0031462796
27	0x3d26ce46	0.04072406
28	0xbd4c2ffc	-0.04985045
29	0x3d27b969	0.040948305
30	0x3d0cc0f3	0.0343637
31	0xbd55b761	-0.052176837
32	0x3b25b5f5	0.0025285457
33	0x3dacc4b9	0.08435959
34	0xbd4ef067	-0.050522234
35	0x39c1ede2	0.00036989065
36	0xbcd2f005	-0.025749216
37	0xbcfbe758	-0.030749962
38	0xbc3aacbd	-0.011393723
39	0xbd59704e	-0.053085618
40	0x3c17ad15	0.009257575
41	0xbc5a7b38	-0.013335042
42	0x3da92483	0.08258917
43	0x3a94caf0	0.0011351984
44	0x3bd96763	0.006634639
45	0x3d6b9889	0.057518516
46	0x3d7312bd	0.059344042
47	0x3caf7e5d	0.02142256
48	0xbcbacd42	-0.022802953
49	0xbd46a319	-0.048495386
50	0xbcafd3e7	-0.021463348
51	0xbc840dc6	-0.016119849
52	0xbd13582a	-0.03597275
53	0x3d930f9a	0.0718071
54	0xbd472151	-0.048615757
55	0xbc702348	-0.014656849
56	0x3cfb3365	0.030664155
57	0x3d627611	0.05528838
58	0xbda92206	-0.082584426
59	0xbca796c0	-0.020457625
60	0xbd08aabb	-0.033365946
61	0x3d8be936	0.06831591
62	0xbca594af	-0.0202125
63	0x3d1facf5	0.038983304

fc.weight f4 [2, 64]
0	0xbc2336d0	-0.009961799
1	0xbddedd85	-0.10882095
2	0x3d36a752	0.044593163
3	0xbd5666bc	-0.05234407
4	0x3dc81f92	0.097716466
5	0x3deae557	0.11469524
6	0xbe253dc6	-0.16136846
7	0x3cea6c1b	0.028616002
8	0x3cab17cf	0.020885376
9	0xbd94462f	-0.07239949
10	0xbd6f0a1b	-0.058359247
11	0xbd81f222	-0.06345011
12	0x3dbba343	0.09161999
13	0x3e04426e	0.12915966
14	0x3dba17db	0.09086581
15	0xbbeaa140	-0.007160336
16	0x3cd25008	0.025672927
17	0x3c4b58e8	0.012411334
18	0x3cac44ea	0.021028955
19	0xbe123961	-0.14279701
20	0x3d7f3faa	0.062316574
21	0x3d770a72	0.060312696
22	0x3e0b20f0	0.13586783
23	0xbd843e25	-0.06457166
24	0x3e0ef98a	0.13962379
25	0x3df700d2	0.12060703
26	0x3bdead60	0.0067955703
27	0xbd899e86	-0.06719689
28	0x3dc43575	0.095805086
29	0xbca35d0a	-0.019941825
30	0x3e036b56	0.12833914
31	0x3d3eeee8	0.046614558
32	0x3c1b79f7	0.009489528
33	0xbdee9149	-0.11648805
34	0xbdd34a8a	-0.103169516
35	0xbcabb9f0	-0.020962685
36	0x3e1fb6f6	0.15597138
37	0x3db32eee	0.087491855
38	0x3db76ace	0.08955918
39	0xba8cc68f	-0.0010740327
40	0x3d2dbcdd	0.042416442
41	0x3bdd5ca9	0.0067554307
42	0x3e3632f2	0.17792872
43	0x3d8784c1	0.06617118
44	0x3dd7eece	0.10543595
45	0x3e311a7f	0.17295264
46	0x3dc4a738	0.09602207
47	0xbda97604	-0.08274463
48	0xbc070e99	-0.008243226
49	0xbd051d0d	-0.032498408
50	0xbcbfbd7d	-0.023405785
51	0x3e0280b0	0.12744403
52	0x3db0e8b8	0.086381376
53	0xbdc297f4	-0.09501639
54	0xbda0ec29	-0.07857544
55	0x3c87be8a	0.016570348
56	0xbb0ec39d	-0.0021784075
57	0x3e04375d	0.12911744
58	0x3bad1d2c	0.0052830186
59	0x3e0530c9	0.13006891
60	0xbe0f87b0	-0.14016604
61	0x3ccf9775	0.025340775
62	0xbe1418d5	-0.14462598
63	0xbe1dd78f	-0.1541426
64	0x3dbbc7b5	0.091689505
65	0x3dceeb23	0.101034425
66	0xbe11fae1	-0.14255859
67	0x3d85c167	0.06531029
68	0xbc237b83	-0.009978178
69	0xbd8ac7e3	-0.067764066
70	0x3c507029	0.012722054
71	0xbe07e7cb	-0.13272016
72	0x3e2cb6cd	0.16866608
73	0x3d5effb0	0.05444306
74	0xbd991bc7	-0.07476001
75	0x3e0ab296	0.13544688
76	0xbdaf8e9d	-0.08572123
77	0x3cedd4a3	0.029032057
78	0xbc87558c	-0.016520284
79	0xbde3a362	-0.11115147
80	0xbd584e1d	-0.05280887
81	0x3c8cdcad	0.01719507
82	0x3d77f88c	0.060539767
83	0x3e0ad63d	0.13558288
84	0xbbd2a0df	-0.0064278687
85	0xbd8dfae3	-0.069326185
86	0xbdfed9c7	-0.124438815
87	0x3db71085	0.08938698
88	0xbd9758ad	-0.073899604
89	0xbdda70fa	-0.1066608
90	0xbd706db0	-0.058698356
91	0xbe284c0f	-0.16435264
92	0xbdfd0729	-0.12354881
93	0x3e05e8aa	0.13077036
94	0x3d197eee	0.037474565
95	0xbd859180	-0.065218925
96	0xbd002130	-0.03128165
97	0x3dcdc450	0.10047209
98	0x3d2e85ad	0.042607952
99	0xbb6ad214	-0.0035830783
100	0xbe245f02	-0.16051868
101	0x3cadc4f7	0.021212084
102	0x3a877b46	0.0010336421
103	0xbe125b56	-0.14292654
104	0xbdb4bfe8	-0.08825666
105	0x3e1f892a	0.15579668
106	0x3d458c02	0.048229225
107	0xbdea99af	-0.11455094
108	0xbc936d55	-0.01799647
109	0x3d94fa08	0.07274252
110	0xbdec3d56	-0.115351364
111	0x3e068a13	0.13138609
112	0xbdcd553a	-0.10026021
113	0xbcf40167	-0.029785825
114	0x3e11d98b	0.14243142
115	0x3db3f021	0.08786035
116	0xbc470500	-0.012147188
117	0x3cbb9aad	0.022900904
118	0x3da49727	0.080366425
119	0x3d72ef61	0.05931032
120	0x3d9a3c4d	0.07531033
121	0xbd330bad	-0.043712307
122	0x3d12b1cb	0.035814088
123	0xbc7f21d4	-0.01557203
124	0x3d3f860c	0.046758696
125	0xbdab34e2	-0.08359696
126	0x3c7e67d3	0.015527683
127	0x3c430018	0.011901878

fc.bias f4 [2]
0	0x3d3f97df	0.046775695
1	0xbdecc50a	-0.1156102
