Project/runs/lstm_testpos_win256/best.pt (torch, 73841 bytes, 6 tensors)

lstm.weight_ih_l0 f4 [256, 3]
000000 00 b6 ca bd a2 93 46 bd 6c 28 2e bd a5 e1 88 3d
       -0.09897995 -0.048480637 -0.042519018 0.06683663
000010 76 40 52 3d 8e 56 c6 3d 46 c6 af 3d b6 f0 9f bd
       0.051331006 0.09684478 0.085827395 -0.07809584
000020 55 70 8d 3d 64 34 92 3d ff e1 c5 bd 62 4d 40 bd
       0.06906191 0.07138899 -0.09662246 -0.046948798
000030 5b 10 68 bd 1b 22 3f bc 57 93 74 bd d1 4b 04 3e
       -0.056656223 -0.011665846 -0.059710827 0.12919547
000040 b7 a1 07 3d 46 83 26 3e ce 72 18 3e 1a c7 33 bd
       0.033113208 0.16261014 0.14887545 -0.04389105
000050 15 16 ae bd 00 15 c2 bd 9f c2 2b bd 4a cf 13 bd
       -0.085003056 -0.09476662 -0.041933652 -0.036086358
000060 ab fd d4 bd 83 0f b7 bd 90 51 1d 3d f8 6f e6 bc
       -0.10399946 -0.089385055 0.038407862 -0.028129563
000070 4f d3 b4 bd cb 69 13 3e 9b 24 fc bc 35 c2 94 3d
       -0.088293664 0.14395826 -0.030779174 0.072636046
000080 bd 18 79 3d 83 7f 1d 3e ce dd fd bd a7 2a d9 3d
       0.060814608 0.15380673 -0.123958215 0.106038384
000090 71 6d 3c bd a0 2e fa 3b 58 8c 29 3d 79 c6 74 bc
       -0.04600281 0.0076349527 0.041393608 -0.014939898
0000a0 ef d0 93 bd cb 98 c1 3d 76 7a 26 3e e5 4d 8b bc
       -0.07217585 0.09452971 0.16257653 -0.017004916
0000b0 a2 7b c9 bd 26 ac f4 bd 69 4a 6b 3d a6 5b 95 3d
       -0.09838034 -0.11946897 0.05744401 0.07292871
0000c0 0e b2 e5 bd 41 49 72 3d 49 1a c1 3c 0e 70 f8 3d
       -0.11215602 0.05915189 0.023572104 0.12130748
0000d0 c9 c5 a5 bd 4e fb fb 3d ec f9 76 3d 7a dc 9c 3d
       -0.08094365 0.12303792 0.060296938 0.0765924
0000e0 aa ae ce 3d 3b af 8a 3d c8 b0 fb 3c 9c f2 3d 3d
       0.10091908 0.06771704 0.030723944 0.04637395
0000f0 1f 31 a5 3d 7c f4 ce bd 40 e1 18 3d d1 e2 d8 3d
       0.0806601 -0.101052254 0.03732419 0.10590137
000100 57 06 c7 bc 78 3a 52 bd e9 15 bc 3d cf 79 37 bd
       -0.024295015 -0.05132529 0.091838665 -0.0447939
000110 c3 f2 03 be f4 6a 93 3d b2 fb 0e bd e8 12 c7 bd
       -0.12885575 0.07198134 -0.034908004 -0.09720403
000120 22 37 b5 3d dd e3 62 bd 2b c2 f3 3d f2 db 9b 3d
       0.088484064 -0.05539309 0.11902269 0.076103106
000130 0c f2 29 3d c8 62 fd bd c9 cf 7a 3c 73 d1 69 3d
       0.0414906 -0.12372357 0.015308329 0.057084512
000140 22 e8 83 3d 11 b8 04 3d cd 2e 23 3c 24 1c 04 bd
       0.0644076 0.032402102 0.009959889 -0.0322534
000150 fd 2e 87 bd 07 48 14 3e be bd f6 bc e1 6b 73 bd
       -0.06600759 0.14480601 -0.030119773 -0.059429053
000160 d5 f5 c1 3d 1f 7c d4 bd 2c 0a 11 3d cc 38 49 bc
       0.09470717 -0.10375237 0.03541009 -0.012281608
000170 13 1f af bc be a4 34 bc e1 2e 09 3e 46 2b 1c 3d
       -0.021377122 -0.011025606 0.13396789 0.038127206
000180 69 d9 74 3d e1 28 9d bd 4a 40 1f bc 60 1e d8 3d
       0.05977765 -0.07673813 -0.009719918 0.105526686
000190 79 29 2b 3e d2 72 16 3e 8e 44 5f 38 49 c5 ba 3b
       0.1671504 0.14692238 5.323119e-05 0.0056997878
0001a0 40 f4 b6 bd 5a 95 1f 3e 1b 49 03 3d 12 00 92 bc
       -0.08933306 0.15584317 0.03205214 -0.0178223
0001b0 2b 70 84 3d d1 bd dd 3b 76 1e 21 3e ef d8 09 3e
       0.06466707 0.0067670126 0.15734276 0.1346166
0001c0 6f 29 d8 3d f6 e5 d4 bd 80 73 82 bc a3 7c 27 3d
       0.10554778 -0.10395424 -0.015924215 0.040890347
0001d0 ae eb d1 ba 90 ce cb ba 0c a7 8c 3d 1e dd 20 3d
       -0.0016015673 -0.0015549231 0.06867799 0.039273374
0001e0 81 1e de 3d 45 3f 0d 3d bb 59 fd bc a8 1a 9c bd
       0.10845662 0.034484167 -0.030926576 -0.07622272
0001f0 2e 89 33 3d 01 23 14 3e 42 51 8d bd c9 0f 18 bd
       0.043831997 0.14466478 -0.06900264 -0.03712443
000200 ba bc 1a bd a2 87 70 bb 27 c0 4f bd 1a d8 ec 3b
       -0.03777764 -0.0036701937 -0.05072036 0.0072279098
000210 1d e8 61 bd 80 5f bd 3d 8e af e0 3d 8e de 12 3d
       -0.055153 0.09246731 0.109709844 0.035856776
000220 f5 86 e3 3d e0 3b a5 bd 0f d8 78 bd 2d 81 77 bc
       0.111097254 -0.08068061 -0.060752925 -0.0151064815
000230 3b 16 8f bd 85 ac 86 bc 92 36 d9 3d e1 c8 5f 3c
       -0.06986662 -0.016439686 0.106061116 0.013658733
000240 00 23 c2 3c 5c 67 a2 bb 12 90 a0 bc 30 6a b4 3c
       0.02369833 -0.004956169 -0.019599948 0.02202329
000250 f9 eb 23 3e 3a 18 03 3d 7a ab 07 3e 15 54 c1 3c
       0.16007985 0.032005526 0.13249007 0.023599664
000260 6d 66 f0 ba 7c fe ec bd a4 40 b8 3b 1d 05 90 3d
       -0.0018341072 -0.115719765 0.00562294 0.07032225
000270 b7 ce 66 3d 8c 05 d1 bc c1 52 f2 3d 30 2c 5c bd
       0.056349482 -0.02551534 0.1183219 -0.053753078
000280 e2 bd c1 bc 85 f9 1a 3d 82 80 07 3e 8a 04 9a 3b
       -0.023650113 0.037835617 0.13232616 0.004700248
000290 93 ba ab bd 92 7c b9 3d bf 24 5e bd fb 63 c8 bd
       -0.083851956 0.09056963 -0.054234263 -0.09784695
0002a0 9f d6 85 bd a3 e4 3e bd 3d 8f e0 3d 39 24 82 3d
       -0.06535076 -0.046604764 0.109648205 0.06354565
0002b0 08 a4 0e bd 31 da 41 3c 91 b5 0d 3c 2b c9 8a bc
       -0.0348244 0.011831806 0.008649246 -0.016941627
0002c0 98 6a b3 bd 02 fe dc bd a2 27 b7 3d 20 1d 31 3e
       -0.087605655 -0.10790636 0.08943106 0.17296267
0002d0 ce fc c6 3c 36 dc b4 39 56 9f ab bd 17 b7 94 3d
       0.024290469 0.00034496345 -0.0838 0.07261484
0002e0 62 73 05 3e ee 61 6e bd bb 36 25 3e 56 18 fb 3d
       0.13032296 -0.05819886 0.1613416 0.12260501
0002f0 72 ca 33 3d 9d 4a 2e bb 71 1a cf 3d 63 48 9b 3d
       0.04389424 -0.0026594766 0.10112465 0.07582166
000300 81 40 e1 bd 72 a6 cf bb fe a6 66 3d 59 ad 76 bd
       -0.10998631 -0.0063369805 0.0563116 -0.06022391
000310 95 26 e1 bd d0 ee e2 3d 6b 5f a7 3c 02 37 ff 3c
       -0.10993687 0.11080706 0.020431241 0.03115416
000320 1b b3 80 3c c4 4e 41 3d 91 fd 7b 3b 3d ad 7d 3d
       0.015710404 0.047194257 0.0038450698 0.06193279
000330 33 79 04 3e 07 3f a2 3d 75 55 09 bd da 86 a4 3d
       0.12936859 0.07922178 -0.033528764 0.080335334
000340 85 40 85 3d 18 82 17 3c dd 90 ae 3c e3 b0 88 bd
       0.06506447 0.009247325 0.02130931 -0.066743635
000350 94 d7 2c bd 48 7f 4d bc 13 80 8b 3c f0 2f 83 bd
       -0.04219778 -0.012542553 0.017028844 -0.06405628
000360 fb 8d bc bd 77 a7 99 bd ca 2f ff bc 1b 5d ac bd
       -0.09206768 -0.075026445 -0.031150717 -0.08416196
000370 b8 f5 cb bd 73 fb cd 3c 2c 05 11 3e e6 42 b3 bd
       -0.099589765 0.025144314 0.14162129 -0.08752994
000380 49 aa ef bd f9 11 38 bd 0e 3b 9a bd 7d 8a 2a 3c
       -0.11702401 -0.044939015 -0.07530795 0.010408995
000390 01 0a 69 bd 6a 2d 5c bd f4 f5 93 bb a6 14 de 3d
       -0.056894306 -0.053754248 -0.004515404 0.10843782
0003a0 29 e8 68 3c d8 ab af 3d 1c 3c 64 3d 4d a8 b5 bd
       0.014215508 0.085776985 0.055721387 -0.088699915
0003b0 01 1d 20 3d d5 70 29 bc ef 0e f3 3c f3 0b 3f 3d
       0.03909016 -0.010341843 0.029670207 0.046642255
0003c0 ac b2 16 be a1 88 5f 3d 32 22 98 3c a8 99 98 bd
       -0.14716595 0.05457366 0.018570993 -0.074511826
0003d0 fe 4e da 3d 40 e8 b9 3c 19 1e da bd 12 26 a6 3d
       0.10659598 0.022693753 -0.10650272 0.0811273
0003e0 96 97 c6 3d 2c 6a 8f bc 60 a7 2d bd 52 d0 b2 3d
       0.096968815 -0.017506681 -0.04239595 0.0873114
0003f0 92 38 91 3c d8 c7 bc bd ca 9e ca 3b 84 6f b8 3d
       0.01772717 -0.09217805 0.00618348 0.09005645

lstm.weight_hh_l0 f4 [256, 64]
000000 c8 89 8f 3d e7 f6 76 bd 70 9a 41 bd 26 8e 42 3c
       0.070087016 -0.06029406 -0.047266424 0.011874711
000010 b9 4d 18 3d bc 1c f0 3d 44 e7 f5 bc 13 3d fe 3d
       0.037183497 0.11724231 -0.030017503 0.12413993
000020 d7 06 ed 3d 72 c2 33 3c a4 b8 e3 3d ba 83 41 bd
       0.1157357 0.010971652 0.11119202 -0.047244765
000030 6d 3d 78 bd 9c 9e e2 3d 3a d3 8b 3d ce 42 d6 3d
       -0.060605455 0.110654086 0.06827398 0.10461961
000040 c4 da e2 bd 45 b4 b9 bd bc 10 54 3d cf 8d e4 3d
       -0.110768825 -0.09067587 0.05177377 0.1115986
000050 54 3a 00 3e 43 6b fc 3d f2 4b e1 3d 9b 0b d8 bd
       0.1252225 0.12325146 0.110008135 -0.105490886
000060 77 1a ee 3d 77 a0 fe 3b 4c 22 49 bc 78 df ee 3d
       0.116261415 0.0077705937 -0.012276243 0.11663717
000070 64 92 9f bd 6c 4e eb 3c 8e 0d 81 bd a1 38 3b 3b
       -0.07791594 0.028723918 -0.063014135 0.002856769
000080 05 17 7a bd 16 35 32 bd 4b 4f a3 bd 67 8f 5d 3d
       -0.06105711 -0.043507658 -0.07974108 0.054091837
000090 68 31 55 3c 34 f5 13 bd 55 c3 a4 3d 26 3b 23 3d
       0.013012268 -0.036122516 0.08045069 0.03985133
0000a0 59 7a ee bd 36 85 e1 bd 5c f9 c4 bd a1 f0 29 bd
       -0.1164443 -0.11011736 -0.09617874 -0.041489247
0000b0 60 4a c8 bd 15 65 ca bd cf 7d 95 3d a4 55 f1 3c
       -0.09779811 -0.09882561 0.07299387 0.029459782
0000c0 d9 9e ae bd 95 5a eb 3c 00 9a 9e 3d c5 bb c1 bc
       -0.085263915 0.028729716 0.07744217 -0.023649106
0000d0 70 9c 2b 3d d6 bf 9d bd 77 ec d2 3d 56 bf d3 3d
       0.041897237 -0.077026054 0.10299008 0.10339229
0000e0 d5 07 76 3d a0 01 85 3c 18 55 97 bd 45 97 2b 3c
       0.060066063 0.016236126 -0.07389277 0.010473077
0000f0 72 9c 12 bd 9c 96 0d 3d 8c 78 f1 bd 5b c9 c1 bd
       -0.03579373 0.03456746 -0.117905706 -0.09462234
000100 fa 1e c0 3d 4d df ac bd 08 84 ea bd 5e ad b2 3d
       0.09380908 -0.08441029 -0.11450964 0.087244734
000110 42 26 26 3d 71 08 ac 3b 88 72 cc bd c5 43 55 3d
       0.04056383 0.0052500297 -0.099827826 0.052066583
000120 80 6e 10 bd 89 e1 b4 3d 79 6a 8e bd c3 5a 80 bd
       -0.03526163 0.0883208 -0.06953902 -0.062673114
000130 cc 30 92 bd b6 f9 a8 bd 3a 52 d4 3c 25 68 64 bd
       -0.071382135 -0.082507536 0.025918115 -0.055763382
000140 e5 6d aa bd 4b dd 6b 3d 00 98 d5 bc 3b a5 79 bd
       -0.08321742 0.05758409 -0.026073456 -0.06094859
000150 41 1d f3 3d 15 10 a1 bd a3 63 8c bd 4d a0 4a bc
       0.11870814 -0.078643955 -0.06854942 -0.01236732
000160 f0 c3 d3 bd 1a fc 99 3d da ab 89 3d 89 d5 8c bd
       -0.103401065 0.07518788 0.06722231 -0.06876666
000170 76 4a 33 bd 7b 0a 5f 3c 82 5c 1d bd 91 1f be bd
       -0.043772183 0.013613339 -0.0384183 -0.092833646
000180 83 45 ce 3c c1 0d df 3d ac 84 87 bd 32 c7 09 3d
       0.02517963 0.10891295 -0.06617102 0.033637233
000190 e9 ee d8 3d e7 8a e4 bd f3 ed c1 3d 1c 8d a1 3c
       0.105924435 -0.11159306 0.09469213 0.019720607
0001a0 cb 04 9b 3b e5 b0 61 bd 57 d5 cc bc d8 03 bb bd
       0.004730796 -0.05510034 -0.025004072 -0.091315925
0001b0 e9 d3 10 bd 17 c6 00 3e ac 86 04 be 60 1c ac 3b
       -0.035358343 0.12575565 -0.12941998 0.005252406
0001c0 1a 70 02 3e f8 30 1e bd 49 ef ee bd 05 43 f1 bd
       0.12738076 -0.03862092 -0.11666734 -0.11780361
0001d0 01 d9 10 ba c5 ee 31 bc 54 c1 89 3d 80 38 f4 bc
       -0.00055255 -0.01086015 0.067263275 -0.029812098
0001e0 66 88 a4 3d c9 62 58 bd 90 ad 15 3b 28 39 68 3c
       0.080338284 -0.052828584 0.0022839047 0.014173783
0001f0 2f 88 26 3c 08 29 28 bd 8a 28 a8 bd 94 07 de bd
       0.010164305 -0.041054755 -0.08210857 -0.10841289
000200 6d d9 08 be dc 50 e7 3d 1f 9d 61 3c 8d 6c 0a 3e
       -0.13364191 0.112947196 0.013770371 0.13517971
000210 3e 64 84 3a 56 3d f8 3d e0 4c 15 bd 1b 9a 6b 3d
       0.0010100675 0.12121074 -0.036450267 0.057520013
000220 b5 42 d1 3c f9 a4 62 3d 40 26 cc bd 33 9a db 3c
       0.025544504 0.05533311 -0.09968233 0.026806926
000230 ca ac 5c bd 71 99 34 3d 1c f6 f2 3d 61 ff c6 bd
       -0.053875722 0.044091646 0.11863348 -0.097166784
000240 19 a8 98 bc bc 68 cf bb 64 52 20 bd 54 bf 0f bd
       -0.018634843 -0.006329624 -0.039141074 -0.035094574
000250 75 73 3b 3d df 24 c5 3d 60 48 08 3e a6 2b 9f 3c
       0.045764405 0.09626173 0.13308859 0.019429993
000260 b4 75 93 bd 02 b4 b3 bd 46 e6 f6 3d 4b 4c 8b 39
       -0.072001845 -0.08774568 0.1205564 0.0002656899
000270 7f 6c 8d 3d 98 2f 96 bd 29 92 bb 3d 5e 26 bd 3d
       0.069054596 -0.073332965 0.09158737 0.092358336
000280 ef 0b db bc 96 40 ac 3d ce a1 bf 3d 6a 50 a5 3d
       -0.026739089 0.08410756 0.09357034 0.080719784
000290 4c 3a 9f 3d ed 4a 80 3d e5 6c e3 3d ab a7 43 bd
       0.07774791 0.06264291 0.11104754 -0.047767323
0002a0 f5 c6 d0 bd 23 17 06 3e 81 7f ce bd df a8 4d bd
       -0.10194198 0.13094763 -0.10082913 -0.050209876
0002b0 a8 d8 e8 bd 0d 5d ce bd 99 0a da bd 3d ee d2 3d
       -0.11369449 -0.10076342 -0.106465526 0.102993466
0002c0 6a 8a b0 bd 87 68 c4 3d a8 5a ff bd 39 6e b8 bd
       -0.086201504 0.095902495 -0.12468463 -0.09005398
0002d0 27 3b f8 bd ef 19 b6 bd 98 b1 a2 3d 82 cd 1b bd
       -0.121206574 -0.08891665 0.079440296 -0.038037784
0002e0 3b 4c e1 bc 98 6d e8 bd 3e f2 0f 3d 5c 82 69 3b
       -0.02750217 -0.11349028 0.03514313 0.0035630679
0002f0 2a b9 8b 3d b8 fd c7 3d 9c c9 4e 3d 8f b7 d5 3b
       0.068224266 0.0976519 0.05048524 0.006522126
000300 a5 f2 92 bc 1a 9f fe bd d9 9d 90 3d 0f a7 52 bc
       -0.017937968 -0.1243269 0.07061357 -0.012857213
000310 0b 10 96 3c 70 4d d7 bd 5b d2 63 bd 27 b8 b9 3d
       0.018318197 -0.10512817 -0.055620532 0.090683274
000320 d3 49 9e 3d ec 5d e2 bd c3 4a 9b bd 12 65 59 3d
       0.077289246 -0.110530704 -0.07582619 0.053074904
000330 0c 2a 45 3c 4c 03 d9 bd a1 8a a2 3d d7 41 cd bb
       0.012033951 -0.10596332 0.079365976 -0.0062639522
000340 c2 62 36 bd d0 8e d6 3c 30 13 58 3d 8b 77 d1 bc
       -0.044527777 0.026191145 0.052752674 -0.025569698
000350 b2 dd 6a 3d 82 51 d0 3d 32 0d 33 bd 29 b9 53 3d
       0.05734033 0.101717964 -0.043713756 0.051690254
000360 22 d8 b4 3d 8c bd fc bd a0 7d 41 3c f5 75 1c bd
       0.088302866 -0.12340841 0.0118097365 -0.03819843
000370 0c d1 b8 bc 7f 76 97 3d 1b b1 d2 3c a9 c3 da bc
       -0.022560619 0.07395648 0.025719216 -0.026704626
000380 8a d6 bc 3d e4 5f 85 bd 97 50 77 bc 22 84 34 3c
       0.092206076 -0.0651243 -0.015094898 0.011017831
000390 48 2f 07 bd 48 ed 2d bc 59 8f 9c bd 29 28 c8 3d
       -0.033004075 -0.010615654 -0.07644529 0.09773285
0003a0 22 b0 52 bd c5 1f cb 3d 1b 2f 4b bd 3b 1c c3 3d
       -0.051437505 0.09918169 -0.04960547 0.09526869
0003b0 76 54 02 3e b6 aa 1b 3d 4e 10 3f 3d 4a 72 ce bc
       0.12727532 0.0380046 0.04664641 -0.025200982
0003c0 9a 17 79 3d 8d 00 38 be 04 b1 d6 3d 72 82 d5 3c
       0.060813524 -0.1796896 0.10482982 0.026063178
0003d0 77 da 24 bd a4 7d 09 be 56 4a 11 be 38 9e e0 3c
       -0.040247407 -0.13426834 -0.14188513 0.027419195
0003e0 6b 83 60 3d e1 b6 0e 3d 58 af bf ba f5 8e 1b 3d
       0.05481283 0.034842376 -0.00146244 0.03797813
0003f0 51 97 46 3d f1 47 52 3d 02 02 2b 3d fa 74 8c 3d
       0.04848415 0.05133814 0.04174996 0.06858249

lstm.bias_ih_l0 f4 [256]
000000 ee e8 59 bd ad a1 a2 3d 0e 43 47 3c a0 de cb bc
       -0.053200655 0.079409935 0.012161983 -0.02488643
000010 0e 4b 5c bd c4 36 23 3e 51 81 3a 3d 35 ad ad bd
       -0.053782515 0.1593886 0.045533482 -0.08480302
000020 7c f7 0f be 5d 38 00 3e c8 38 fc bc e0 e9 99 bc
       -0.14059252 0.12521501 -0.030788794 -0.018788278
000030 33 cb b0 3d 20 7d 90 3c 1d ca 35 3d 8e c3 15 3e
       0.08632507 0.01763779 0.044382203 0.1462538
000040 dd 4f 90 3d 8a 62 d0 bd 70 76 b4 bd e0 4b c0 3d
       0.07046483 -0.10175045 -0.08811653 0.09389472
000050 c4 4f f1 bc 87 98 61 bc 12 2f f1 3d 61 e5 00 3e
       -0.02945698 -0.0137692755 0.11776556 0.12587501
000060 e8 60 5d bd 53 40 8c 3d 96 a7 57 bc bb 80 64 bc
       -0.054047495 0.06848206 -0.013162514 -0.013946707
000070 b2 5c b3 3d a3 dd 48 3d fa 43 bb bd 7b e5 80 bd
       0.087579146 0.049039494 -0.09143825 -0.0629377
000080 70 90 f6 3d 2e dc 9d bd f6 43 b6 bd bf 31 20 bd
       0.12039268 -0.077080116 -0.08899681 -0.03910994
000090 52 99 8f 3d 7d 8f ef bc 38 71 ef 3d d5 7e 96 bb
       0.070116654 -0.029243225 0.11691517 -0.0045927563
0000a0 a1 ad ea bd e0 39 10 3d a0 7f f2 bb 39 cc b1 3d
       -0.11458898 0.035211444 -0.007400468 0.086815305
0000b0 b2 d2 a9 bd 3a 65 b9 bd c8 4e 3c bc 6b 65 5e bd
       -0.0829214 -0.090525106 -0.011493392 -0.05429594
0000c0 6f f4 8b bd 46 4f a0 3c 7a af 60 3a 4b 3b 00 3e
       -0.068337314 0.01956905 0.000857107 0.12522618
0000d0 44 90 dd bc be 1a a7 bd 3e f1 86 bd 98 e0 f8 3d
       -0.02704633 -0.081593975 -0.06588982 0.12152213
0000e0 8c cb ea bd 00 37 8f 3d b2 7f cb bd e5 29 86 3d
       -0.11464605 0.06992912 -0.09936465 0.065509595
0000f0 9f f8 9b bd 5b ad b3 bd 83 56 e7 bd 9e ab d7 3d
       -0.0761578 -0.08773299 -0.11295798 0.1053078
000100 7c 15 38 3d e7 67 8a 3d b1 fd 10 bc ac f5 16 3e
       0.044942364 0.06758099 -0.008849547 0.14742154
000110 d7 de af 3d b2 5e b0 3c e0 a2 c3 3d 7b 5a 05 be
       0.08587425 0.02152953 0.0955255 -0.13022797
000120 4d 9b c3 bd 6f ef cd bd 2e d7 91 3c 6a d7 d0 bb
       -0.09551106 -0.10055434 0.017802801 -0.0063733356
000130 0e 08 78 3d d3 98 41 bc ae 0d 0a 3d 33 a1 bb bd
       0.060554557 -0.011816221 0.033704452 -0.09161606
000140 8a 76 bd bd eb 53 a1 bd 54 0b be 3d 58 ab 03 3e
       -0.09251125 -0.07877334 0.092795044 0.12858331
000150 c6 23 a7 3d ea 42 0a 3e ae 28 87 bd e6 cf b5 3d
       0.0816112 0.13502088 -0.06599556 0.08877544
000160 b8 73 07 bd 0e 94 52 3d 97 06 d3 bd 37 29 99 3c
       -0.033069342 0.051410727 -0.10303991 0.01869641
000170 78 85 e6 bc 08 28 fd bc 5a 0e 45 3d fc 6e 83 3d
       -0.028139815 -0.030902877 0.04810939 0.06417653
000180 c0 e4 2a 3d 26 27 1f bd b2 46 5f bd b6 fa 92 bd
       0.04172206 -0.038855694 -0.05451078 -0.071767256
000190 f9 be 09 3e b6 6a cf 3c b9 b4 58 bd 94 b7 cf 3d
       0.13451757 0.025319438 -0.052906726 0.101424366
0001a0 77 f0 3e 3d a1 5e e7 bd 48 bb 66 bd d5 2d d4 bd
       0.046616044 -0.11297346 -0.05633095 -0.10360304
0001b0 d9 19 2d 3e de 94 4b 3d 70 50 b4 3d 13 d9 ab bd
       0.16904391 0.049702518 0.08804405 -0.08391013
0001c0 3c 03 bb bc 11 ee ec 3d 0a b4 42 bb 0b 2b 60 3c
       -0.02282869 0.11568845 -0.0029709362 0.013682137
0001d0 6a a8 5c 3b 36 55 bc bd 8c 62 0f bd ca 08 60 3d
       0.0033669719 -0.0919594 -0.03500609 0.054695882
0001e0 88 bb db 3d 1c fa f5 bc 80 f4 17 3e b8 63 fb 3d
       0.10729128 -0.030026488 0.14839363 0.12274879
0001f0 70 3e d4 3d 18 cd 90 bd 11 02 c1 bd 77 00 10 3e
       0.103634715 -0.070703685 -0.09424222 0.14062677
000200 86 d9 44 3c 23 95 cd bd 8a dc a2 3d 4f e0 06 3e
       0.012014752 -0.10038211 0.07952221 0.13171504
000210 aa 3f a8 bc e3 69 a9 bc d6 ad 6c bd 43 43 43 3d
       -0.02053817 -0.020680374 -0.05778297 0.047671568
000220 a1 e4 c0 3d 82 fb 03 3d 58 e0 c8 3d 21 86 57 3d
       0.094186075 0.03222228 0.09808415 0.05261815
000230 5b 00 fc 3d 94 2f ee bc 13 55 09 bc a3 55 b0 bc
       0.12304755 -0.029075421 -0.0083821 -0.02152521
000240 db 09 3c bb 94 69 88 bc 43 f4 d1 bc 96 b8 c6 bd
       -0.0028692398 -0.016651906 -0.025629168 -0.09703176
000250 d2 60 b5 bb 2f f2 62 bd 58 c0 0c bd 37 da 82 3d
       -0.0055352235 -0.055406746 -0.03436312 0.063892774
000260 48 c0 91 3d 6c 85 91 bd 0d 59 26 3d 2f 84 ec bc
       0.07116753 -0.07105526 0.04061227 -0.028871624
000270 d1 ca af 3d ca e1 86 bd 33 d4 2e 3d 37 56 9a bc
       0.08583606 -0.065860346 0.042682838 -0.018839939
000280 9e ea cb 3c 94 f1 a8 bd fe c2 5d bc 7d a6 00 be
       0.024892148 -0.08249202 -0.013535259 -0.1256351
000290 65 0a 54 bd 06 5d 2f bd bf ae 04 3c 35 0e 61 bd
       -0.051767725 -0.042813323 0.008098303 -0.05494519
0002a0 45 83 df bc 90 b5 82 3c 43 d0 cd 3d 7f e9 11 3e
       -0.027284274 0.015955716 0.100494884 0.14249228
0002b0 62 e7 ce bd 21 28 a5 bd d4 bc 2c 3d 83 bc ee 3d
       -0.101027265 -0.080642946 0.042172268 0.116570495
0002c0 73 a6 06 be 90 93 43 bd 3e 34 22 3c 50 13 77 3d
       -0.13149433 -0.04774815 0.009900151 0.060321152
0002d0 49 aa 1d 3e 62 15 82 bc 75 9c 8f bd ff de e3 3d
       0.1539699 -0.015879337 -0.07012264 0.111265175
0002e0 de 54 44 3d 0a 2f 0b 3e 71 45 75 3d b6 8e 12 be
       0.0479325 0.13592163 0.059880678 -0.14312252
0002f0 63 84 1a be 5c 26 8a bd 9f c5 58 3d 2e 29 93 3d
       -0.15089564 -0.06745598 0.05292284 0.07185589
000300 e3 0e 71 3c ad c2 a9 bb e1 7b f6 bc c2 e1 1d bd
       0.014713022 -0.005180678 -0.030088367 -0.038545378
000310 5f 0c 65 3d e3 b0 85 bd 3e 8b 4f 3d 32 06 82 bc
       0.05592 -0.06527879 0.0506699 -0.015872095
000320 b4 e1 44 3d 92 4b e7 3c 13 47 96 bd c7 7f e7 ba
       0.04806681 0.028234277 -0.07337775 -0.0017661982
000330 f4 8d e2 3d 5c cf b0 bc dd a8 88 bd 43 3b 38 3d
       0.11062232 -0.021583252 -0.06672833 0.04497839
000340 92 74 aa bc 72 67 b1 bd 72 69 dc bd 3d 8c 1a bd
       -0.020807538 -0.08662309 -0.107622996 -0.037731398
000350 dc eb 9e bc f8 2f 18 3d 9d 9b a5 bc 3a 71 b0 3d
       -0.019399576 0.03715512 -0.020215804 0.08615346
000360 97 aa bd 3d ad 45 be 3d c3 f8 a6 3d 01 bd 02 3e
       0.09261053 0.09290633 0.08152916 0.12767412
000370 da 10 bf 3d b2 68 8c bc c9 67 52 3d ef b8 9f bd
       0.09329386 -0.017139766 0.05136851 -0.07798945
000380 eb e1 d0 bd 80 d2 7e bd 4a 44 c8 3d 2d 06 d3 bd
       -0.101993404 -0.062212467 0.0977865 -0.10303912
000390 1e f0 49 3c ba e3 64 3d 75 36 69 3d 5b e8 c8 3d
       0.012325315 0.05588124 0.0569367 0.09809943
0003a0 45 18 df 3d ea b0 0a be 08 72 52 bd 87 45 b7 3d
       0.10893301 -0.1354405 -0.05137828 0.08948808
0003b0 03 c0 7d 3a 0c a1 be bc da 3c 70 bd cc 22 45 3c
       0.0009679796 -0.023270153 -0.058651783 0.012032222
0003c0 49 e5 1b bd 19 d2 28 bd 32 bc c9 bc 84 9c 12 3e
       -0.03806046 -0.04121599 -0.024625871 0.14317518
0003d0 13 fa 0e 3e d7 8c e4 bd e0 11 1d 3e 74 1d b8 3c
       0.13962583 -0.111596756 0.1533885 0.022474982
0003e0 3b c6 39 bc f5 e8 ae 3d 5b 38 5f 3d 77 ba da 3d
       -0.011338766 0.08540527 0.054497104 0.106800966
0003f0 38 a2 11 3e 93 b0 ef 3c 81 fd a6 3c 38 6b 94 3c
       0.14222038 0.029259002 0.020384552 0.018117532

lstm.bias_hh_l0 f4 [256]
000000 15 14 83 3c 6a bb ab 3b 5b af 87 bd 42 f3 80 3d
       0.016000787 0.0052408474 -0.06625243 0.06296398
000010 60 f5 74 bc 61 75 60 3d 68 db 85 3d c7 b0 a7 bc
       -0.01495108 0.05479944 0.06535989 -0.020470036
000020 c9 fa 27 bd 56 99 e1 bc 09 ca ee bc 69 99 09 be
       -0.04101065 -0.027538937 -0.029149072 -0.13437428
000030 7a 5a 27 bd cb fa ba 3c 23 a9 ca bd fb bc c4 3d
       -0.04085777 0.022824666 -0.098955415 0.09606358
000040 b3 38 fc 3d 66 66 8f bc 20 b2 f2 bc 0a c5 96 bd
       0.12315502 -0.017504882 -0.029625952 -0.07361801
000050 74 83 31 bc e8 69 a9 bd 9e e6 2e bd 41 38 31 3d
       -0.0108345635 -0.08272153 -0.042700402 0.04326654
000060 40 1c 01 3e 1d fb c0 bd b8 34 dd bc 7e b5 59 3d
       0.12608433 -0.09422896 -0.027002677 0.0531516
000070 ce 6e fc bc 12 d9 79 bc 5d b5 20 3d ec e9 67 bc
       -0.030814555 -0.0152495075 0.03923546 -0.014154892
000080 06 0a a2 3c d4 c4 8c 3d e7 06 30 bd ff e3 b9 bd
       0.01978017 0.068734795 -0.042975333 -0.0907669
000090 7f ee 30 bc 91 f9 ba bd 1a 0d ee 3c ae bc 46 bd
       -0.010799049 -0.09129632 0.029058982 -0.048519783
0000a0 1d 22 5b bd 11 5f cd 3d d9 b7 9a 3c 24 a5 47 bd
       -0.05349933 0.10027898 0.018886494 -0.048741475
0000b0 41 09 19 3e 4a 21 dc 3c 20 d1 f1 bd 84 57 dd bd
       0.14944936 0.026871342 -0.118074656 -0.10807708
0000c0 2c b3 d4 3a d2 fd 43 3a ca 32 8a bd 0b 54 84 bd
       0.0016227714 0.0007476482 -0.067479685 -0.064613424
0000d0 b4 25 1a 3e 84 26 c3 bd 62 01 03 3e 14 e8 31 bd
       0.15053445 -0.09528831 0.12793496 -0.043434218
0000e0 f1 96 17 3d b3 cf 92 bd 0c 21 c1 3d 3b 37 22 3e
       0.037009183 -0.07168522 0.09430131 0.15841381
0000f0 9f ca 26 3e fe 2e 6a bd 23 e0 c8 bd 5f fe 99 3d
       0.16288231 -0.05717372 -0.09808376 0.075192206
000100 28 d9 88 3d 93 dc f7 bd 0a 66 6e 3c 5c 13 27 3e
       0.06682044 -0.12102618 0.014550695 0.16315979
000110 e7 9c 32 3c 78 70 65 bc 35 24 16 bd df 05 8a bd
       0.010901666 -0.014003865 -0.036655623 -0.06739401
000120 9a 88 a5 bd eb 0f b9 bd b3 0d 0e 3e 1d 13 82 3d
       -0.08082695 -0.09036239 0.13872413 0.06351302
000130 2c 3a 18 bd 72 a3 8c b9 87 e0 da bd e7 e5 c4 bd
       -0.037164852 -0.00026824657 -0.106873564 -0.09614163
000140 43 5c 2a bd 33 3b 9f bd 70 40 fd ba bf 7c ca 3d
       -0.041591894 -0.07774963 -0.0019321572 0.09887075
000150 5b b7 76 3d 26 41 1e 3e 4d 75 1a bd e8 59 1e 3e
       0.060233455 0.1545454 -0.037709523 0.15463984
000160 f0 52 d4 3d 99 0d 11 3d 9f f9 ae bd c1 df 7d bd
       0.103673816 0.03541336 -0.08543705 -0.061980966
000170 ca 10 1e bd 2c 80 28 bd 66 5f b8 3d 68 d4 08 3e
       -0.03859023 -0.04113786 0.09002571 0.13362277
000180 39 38 e1 3c ed aa 0c 3e 9c 7a 95 3d 54 ad da 3d
       0.02749263 0.13737078 0.072987765 0.10677591
000190 61 ef 74 bc 9c e4 82 bd 1f d5 a0 3d 29 f5 13 3e
       -0.0149496505 -0.0639126 0.078531496 0.1444899
0001a0 7d 6a 04 bc a8 f6 23 3d e3 c8 16 3e cb 7c b7 3d
       -0.008082029 0.04003015 0.1472507 0.08959349
0001b0 12 fd 4e bb 27 28 c0 3d 34 2d bb 3d ab f0 c1 bd
       -0.0031583947 0.093826585 0.09139481 -0.09469732
0001c0 32 0f a9 3d d3 67 91 3d 98 fb 91 3c d1 5b 16 3d
       0.082548514 0.07099881 0.017820165 0.036708657
0001d0 84 1c c2 bd 74 d7 f0 bd 23 eb 5d bc 39 b7 f7 bc
       -0.09478095 -0.117598444 -0.0135448305 -0.030238735
0001e0 04 e7 a2 bd e9 f4 21 3e 1a 7d ed 3d 98 c7 ed 3d
       -0.07954219 0.15816082 0.11596127 0.11610335
0001f0 4b 00 32 3d 3a d2 ba 3d d6 65 1e 3d d1 2d 8f bd
       0.04345731 0.09122129 0.038671337 -0.06991161
000200 ac 23 f3 bd fe 39 71 bd 1b f4 9f bc b4 3b 37 3c
       -0.11872038 -0.058893196 -0.019525578 0.011183668
000210 ec aa bc bd bd 3a 21 3e fc ae 5a 3d 23 81 60 bd
       -0.09212288 0.15745063 0.053389534 -0.054810654
000220 1b 68 52 3d b0 f1 05 be 7e 5f 02 be bb fc cc 3d
       0.051368814 -0.13080478 -0.1273174 0.10009142
000230 3c d7 d5 3d fb 7c fc 3c 04 4d 78 bd 87 a2 d5 bd
       0.10441443 0.030821314 -0.060620323 -0.1043139
000240 59 e0 86 bc 72 d6 01 bd 47 72 14 3d 86 64 e1 3d
       -0.0164644 -0.03169865 0.036241796 0.110055014
000250 d1 42 8e bd 74 8f d0 bd 8c 84 4b 3d 04 2a 04 3e
       -0.06946338 -0.101836115 0.049686953 0.12906653
000260 e0 a6 e8 3d f9 60 6f 3d e5 29 0d 3d c9 49 ce bd
       0.11359954 0.05844209 0.034463782 -0.10072667
000270 ed 10 a8 3c 9a 47 fd bc 40 78 28 3c 03 3c ef 3d
       0.020515883 -0.030917931 0.010282576 0.11681368
000280 bf 37 95 bd fe 37 03 3e eb ee 93 3d 7b 09 b9 3b
       -0.07286023 0.12814328 0.07223304 0.005646882
000290 e9 4b fa 3c 98 ef 8d 3c 42 de 17 bc 8e 0e 03 3e
       0.030553775 0.017326161 -0.009269299 0.12798521
0002a0 b0 3a 67 3d be 5a c2 3d f9 d3 f3 3d d1 a7 c4 bd
       0.056452453 0.09489964 0.11905665 -0.09602321
0002b0 cd 67 58 3d ef ee fa 3c a4 c5 81 3d b5 53 20 bd
       0.052833367 0.03063151 0.06336525 -0.03914233
0002c0 b4 87 8f 3d 07 4d 81 3d 02 bf e4 3c 93 22 b9 3d
       0.07008305 0.0631352 0.02792311 0.09039798
0002d0 87 6d 4e 3d 96 ec 0a 3d 93 67 97 bd 0f 08 44 bd
       0.050397422 0.033917032 -0.07392802 -0.047859248
0002e0 26 cf 3e bd 44 19 39 3d 44 99 89 bd a8 61 19 be
       -0.04658427 0.04519011 -0.06718686 -0.14978659
0002f0 a0 d6 bb bd 22 86 97 3d 32 9f cb 3d 66 4c c8 3d
       -0.09171796 0.07398631 0.099424735 0.09780197
000300 d7 68 bc bd 17 b7 12 be 2b 17 58 bc 00 70 89 3d
       -0.09199684 -0.14327656 -0.013189117 0.067108154
000310 c5 40 cf bd 4a 5e 1f 3e 4b 71 59 3d 8f 22 db bc
       -0.10119776 0.15563312 0.05308656 -0.026749877
000320 b1 55 86 3a 23 d3 82 3d 3a 4e 85 bd 1d 21 3e 3d
       0.0010248927 0.063879274 -0.06509061 0.046418298
000330 0f 9a 9e 3c 84 83 3e 3d 79 7a 93 bd 3e 7b 9c bd
       0.01936057 0.04651214 -0.07201094 -0.07640694
000340 a8 7c 01 bd d2 14 92 bd fa 54 ae bd 6d f2 f9 3d
       -0.031613022 -0.071328774 -0.08512302 0.12204442
000350 78 06 aa 3c e3 88 ca 3d 79 cc 90 bd 5c d5 b7 bd
       0.020755038 0.0988939 -0.0707025 -0.08976242
000360 27 46 6a 3d e7 b9 f6 3d cf 2e 9a 3d 9a d1 14 3e
       0.05719581 0.12047177 0.07528459 0.14533082
000370 f4 42 37 bb 79 12 c6 bd e9 cb 7e 3d ab 3b 4c bd
       -0.002796349 -0.09671492 0.062206183 -0.04986159
000380 49 91 10 3c bd 07 d9 bd 72 67 b8 bd 7f 6a 1e bd
       0.008823701 -0.10597179 -0.09004106 -0.03867578
000390 f0 2b 2b 3c b5 43 f6 3b 73 35 ae bd 01 95 b9 bd
       0.010447487 0.0075153955 -0.085062884 -0.09061623
0003a0 9d 61 0a 3d ea 29 d4 3d 74 0a 81 3c 48 3a 30 bc
       0.033784498 0.10359557 0.015752055 -0.010756083
0003b0 43 59 7a 3d e1 aa e4 3c 24 3d e8 bd 57 2d 93 3c
       0.061120283 0.027913513 -0.11339787 0.017965956
0003c0 57 07 4b 3d df d3 cc 3d 21 fc e0 3d 5c b7 97 bd
       0.049567547 0.10001349 0.1098559 -0.0740802
0003d0 cd e0 a4 bd b5 ae a1 bd 08 14 2d bd e1 b3 14 bd
       -0.0805069 -0.07894651 -0.04225543 -0.03630436
0003e0 a1 db 6d 3d e8 94 f1 bc 8b 55 6b 3c b1 8a 09 bd
       0.058070783 -0.02948995 0.014363657 -0.033579532
0003f0 16 c6 d3 3a b2 4f 03 3e 37 40 e6 bd 88 5b 9c bd
       0.0016157057 0.1282337 -0.11242717 -0.07634646

fc.weight f4 [2, 64]
000000 74 d8 c1 3c b7 dd 0c bd 87 30 d8 3d 6d 31 df 3d
       0.023662783 -0.03439113 0.10556131 0.10898099
000010 41 d6 8a bd 01 4f 1c 3e e0 7f 2f 3d fd 6d 21 3d
       -0.06779147 0.15264513 0.04284656 0.039411534
000020 da af 9c bb 06 f2 9f 3d d7 25 ec 3c e2 2c 99 bb
       -0.0047817053 0.07809834 0.028826637 -0.00467454
000030 6d b0 48 3d f5 bf 73 bd 4f 9a be bd 23 5d d9 bd
       0.048996378 -0.059509236 -0.09306776 -0.106134675
000040 f5 e8 d5 3d 07 a6 9b 3d 3f 4e e7 bc fe ae 36 bb
       0.10444824 0.076000266 -0.028235553 -0.00278753
000050 4b b7 c4 bd 5c fc 36 bd 86 34 01 be 1e a1 13 3e
       -0.09605273 -0.044674262 -0.12617692 0.1441693
000060 fa a6 c4 bb 3c 8d 15 bd cd 56 f5 3d e1 97 f0 bc
       -0.0060013505 -0.036511645 0.119794466 -0.029369297
000070 bc 82 ee 3b 78 94 a3 3d ea e5 07 3e 60 2c 32 bc
       0.0072787683 0.079873025 0.13271299 -0.010874838
000080 47 d8 fa bd 8c b4 88 3d b1 7b b9 bd 19 b5 f3 bd
       -0.12248283 0.066750616 -0.090567954 -0.11899776
000090 ef 03 57 3d c6 ac 3e bd 5f 54 d4 3b 7b 14 e0 3d
       0.052493986 -0.04655149 0.0064797844 0.10941406
0000a0 17 b9 97 bd 88 90 dc bb cc 1d 30 3c 82 d6 43 3d
       -0.0740835 -0.0067310967 0.010749292 0.047811992
0000b0 e8 b7 01 be 3b 37 5d 3d a4 cc a3 bd e3 83 3b 3d
       -0.12667811 0.05400775 -0.079980165 0.045780074
0000c0 06 84 9f bc bd 47 6a bd 5b 26 61 bd fd b1 0d 3e
       -0.019472133 -0.05719732 -0.05496822 0.13837428
0000d0 cd 8e 9e 3d 1e a5 08 3d 22 42 ab bd ac 36 17 3e
       0.07742081 0.033360593 -0.08362223 0.1476695
0000e0 4a 84 cc 3d 17 e2 06 3e 40 23 ce bd 57 58 46 bd
       0.0998617 0.13172184 -0.10065317 -0.04842409
0000f0 c4 8f 8d bd 9e c4 7a bd 6b c5 8f 3d ef fe 0a 3e
       -0.06912187 -0.061222665 0.07020076 0.13573812
000100 34 fc 50 3d c7 a8 ae bd 18 b5 63 3d eb d8 ad bd
       0.05102177 -0.085282855 0.055592626 -0.084886394
000110 56 a9 cc 3d 27 2c 46 3d 9a a5 e6 bc 74 2f 93 bd
       0.09993236 0.04838195 -0.028155137 -0.07186785
000120 7a 9f ce 3d 57 e9 d7 3d 70 77 0f 3e f1 4c 10 3d
       0.100890115 0.10542553 0.14010406 0.035229627
000130 af f0 9f 3c d7 85 b6 bd fe 5a dd bd 59 b1 2d 3d
       0.019523947 -0.08912247 -0.10808371 0.04240546
000140 f9 e8 fa 3d 53 3a 71 bd e4 0e 4c bc 27 2c 96 bc
       0.12251467 -0.058893513 -0.012454722 -0.0183316
000150 ef 9b f6 3d 1f a2 9c 3d f9 5e eb 3c a2 36 16 be
       0.12041461 0.0764811 0.02873181 -0.14669278
000160 f6 ac 7b bd e1 ec 07 3e dc 16 9b 3d 89 13 e3 3d
       -0.061444245 0.13273956 0.075727195 0.110877104
000170 56 c0 06 be 3b f9 00 3e f6 8d 94 bd e4 33 ae bd
       -0.13159308 0.12595074 -0.072536394 -0.08505991
000180 ec 52 3a 3d 44 ed 92 3d 3c cb 89 3d 66 65 f1 b9
       0.045489237 0.07174161 0.06728217 -0.0004604265
000190 b7 d7 d5 3d 6a 79 a2 3d 52 a9 40 bd 68 20 9a bd
       0.10441535 0.07933314 -0.047036476 -0.07525712
0001a0 2e 8f b5 3d cd 19 c8 3c 05 d7 b6 bd 90 e9 37 bd
       0.088652 0.024426365 -0.089277305 -0.044900477
0001b0 0b b7 41 bd c9 72 7e bc 60 1d 5c 3d 46 5b da 3c
       -0.047293704 -0.015530297 0.05373895 0.02665485
0001c0 ea fc 28 3d 06 26 0a 3d 27 92 c6 bd a5 59 10 be
       0.041256823 0.03372767 -0.09695845 -0.14096697
0001d0 72 7b 8f bd 95 58 46 bb 68 46 1c 3e 8d 43 90 bd
       -0.07005967 -0.0030265201 0.15261233 -0.07044134
0001e0 a7 06 70 3d 6d ad 71 bd 7f 41 5d bd 52 94 a6 3d
       0.058600094 -0.059003282 -0.05401754 0.081337586
0001f0 ce f5 08 3e 5c 48 af b9 10 62 af 3c a8 1f 14 3d
       0.13375017 -0.00033432513 0.021409065 0.036163002

fc.bias f4 [2]
000000 b5 df ae 3d 33 a0 1f 3d
       0.085387625 0.038971137
