Project/runs/tcn_testpos_win256/best.pt (torch, 29425 bytes, 6 tensors)

net.0.weight f4 [32, 3, 3]
000000 e4 e5 5b be cd b4 92 be f2 d7 93 3e 8a 71 a0 bd
       -0.21474415 -0.28653565 0.2887569 -0.07834156
000010 64 dd 80 3e ed d7 7d bd 5c 25 94 3d c2 15 89 be
       0.25168908 -0.0619735 0.07233688 -0.26774412
000020 a6 df cd 3d 11 f1 b6 3e 87 d9 a8 3d 72 30 b3 3e
       0.10052423 0.35730794 0.08244615 0.34997898
000030 bb 48 9b 3e c6 0a 64 3e d8 3c 02 be bd 5c 57 be
       0.30328926 0.22269735 -0.12718523 -0.2103147
000040 43 60 5c 3e 7d 97 14 3e 91 e8 4e 3d aa ad 69 3e
       0.21521096 0.14510913 0.05051476 0.22820154
000050 8c 2f a0 3e f3 61 2b 3e e9 b6 26 be 18 8d 95 be
       0.31286275 0.16736583 -0.16280712 -0.29209208
000060 dd dc 7f 3e 3f 01 80 3e 80 c3 4d bd 8b 04 b3 be
       0.24986596 0.2500095 -0.05023527 -0.34964404
000070 0d ab 57 be 8e 64 ba be a4 d2 13 be 99 3e b7 3d
       -0.21061344 -0.36404842 -0.14435822 0.089474864
000080 8f 5c 21 bd 66 36 94 be 4e 94 99 be 53 92 8c be
       -0.03939491 -0.28947753 -0.2999596 -0.27455387
000090 79 12 63 be ae 63 77 be c3 e9 a3 be 2b 93 93 3e
       -0.22175016 -0.24159119 -0.32014284 0.28823218
0000a0 ae e7 a6 3e 81 3d 5d 3d 1a b4 42 3e 92 25 a2 3e
       0.32598633 0.054013733 0.19014016 0.3166929
0000b0 cf 74 a0 bc 70 5e 24 3c a4 f2 46 3e 9d 53 c5 3e
       -0.019586949 0.010032281 0.19428498 0.38540354
0000c0 2f 59 7c bd 89 ca 8e bd d1 df 51 3e 3c ad d6 bc
       -0.06160849 -0.06972224 0.20495535 -0.026205651
0000d0 f9 05 9f 3e 57 55 4f 3e d5 66 0a bd 1c 1f e0 3e
       0.31059244 0.20247398 -0.033789475 0.43773735
0000e0 cd 73 e8 3e 15 38 12 be 85 9a d5 3e ed f1 c7 3e
       0.4540085 -0.14279206 0.41719452 0.39051762
0000f0 74 44 75 3e 7e 38 9d 3e 65 f9 ba 3e b3 e7 ee bd
       0.23951894 0.30707163 0.36518398 -0.11665287
000100 c6 c3 33 3e d7 51 ab be f7 66 d9 bd 51 27 ba 3e
       0.1755515 -0.33460876 -0.10615342 0.3635812
000110 f1 44 9c 3e 34 18 fd 3d 3b cc 41 3e 13 ec 2e 3c
       0.30521348 0.12358132 0.18925564 0.010676402
000120 8d 49 d1 bd a7 9f 9a 3e 5e c2 5e be cf f8 a6 be
       -0.10219107 0.3019993 -0.21753833 -0.326117
000130 b4 6f 77 3e d8 a4 a8 bd e6 42 01 3e 12 d4 a6 be
       0.24163705 -0.082345665 0.12623176 -0.32583672
000140 8f 1a 97 be 03 18 96 3e 8e fa ae be cd e9 a6 be
       -0.2951245 0.29315194 -0.34175533 -0.3260025
000150 f3 4b ba 3e dc 8c 8c 3e 99 5d d2 bd ae d2 67 bd
       0.3638607 0.27451217 -0.102717586 -0.056597404
000160 86 3d 81 3e 7b 5b 7c bd a3 1d 0b be c2 a6 b1 3c
       0.2524225 -0.06161068 -0.13585524 0.021685962
000170 37 09 a2 be 1d bf d2 3d c4 1f 5b bd 38 55 b2 bd
       -0.31647655 0.10290358 -0.05349709 -0.087076604
000180 00 73 99 3e 8c c0 93 3e b3 78 8c 3e 87 a1 04 3e
       0.2997055 0.2885784 0.27435836 0.12952243
000190 54 b9 25 3b 25 f7 b7 be b1 bc 86 bc e3 a9 0e bd
       0.0025287466 -0.35930744 -0.016447397 -0.034829985
0001a0 fb 95 a8 3e 34 22 8d be d4 cc 86 bc ae 10 78 3d
       0.32926926 -0.27565157 -0.016455092 0.060562782
0001b0 15 4d 8c 3e 35 fe af bc 14 2c 6a 3e 25 c0 69 bd
       0.2740256 -0.02148352 0.22868377 -0.05706801
0001c0 51 e5 55 be dd 28 85 3e a0 dc 38 3e 12 1b cf bd
       -0.20888259 0.2600774 0.18052912 -0.10112585
0001d0 ad 4f a7 bd 02 bc 96 3a fa 29 0e 3d 01 ca a9 be
       -0.08169494 0.0011500122 0.034708 -0.3316193
0001e0 a2 60 a8 be 4d 74 82 bd 41 2b c0 3e c9 01 9a be
       -0.32886225 -0.06369839 0.37533 -0.30079487
0001f0 61 81 b8 bd 46 d7 5b 3e fc b0 b8 be b6 f1 5a 3e
       -0.09009052 0.21468839 -0.36072528 0.21381268
000200 bf 10 bd bd b4 7c 33 3d 45 12 4c be 59 02 70 3e
       -0.0923171 0.043820098 -0.19928844 0.23438396
000210 f9 42 f9 bd 86 d9 8c 3e 6a 67 98 be a3 47 52 be
       -0.12170977 0.27509707 -0.297664 -0.2053514
000220 4c c2 58 3e a9 71 90 3e 5a 4f fa 3d 09 db 28 be
       0.21167868 0.28211716 0.12222166 -0.16489805
000230 83 df 34 be 01 27 23 be 7d 9d c7 3d 3c 3e 8b bd
       -0.17663388 -0.15932848 0.097468354 -0.0679898
000240 ec cf 7f 3c 63 26 6c be 96 95 99 3e 4b 51 86 3d
       0.015613537 -0.23061518 0.29996938 0.06558474
000250 1d 93 6c 3e 33 de 92 be 8e 88 e2 3d 2b 28 94 bd
       0.23102994 -0.2868515 0.11061202 -0.07234224
000260 be 24 a6 be e0 ce b0 bd 40 31 15 3d d6 bb a8 bd
       -0.32449907 -0.08633208 0.03642392 -0.08238952
000270 b3 d0 d6 bd 85 b9 8d 3d cb 96 55 be b2 39 8f bd
       -0.10489025 0.06920151 -0.20858304 -0.069934264
000280 11 dc 1b 3e 56 ec 74 3e 01 15 c8 3e 91 db 52 3e
       0.15220667 0.2391828 0.39078525 0.2059157
000290 8e 94 1d be 41 05 b9 3e a4 a5 76 3b f7 c8 62 3e
       -0.153887 0.3613682 0.003763535 0.22146975
0002a0 15 52 2b 3e d3 c6 01 be 10 e5 ad 3e 95 e4 13 be
       0.1673053 -0.12673502 0.33963823 -0.14442666
0002b0 2a 33 37 be de 1e 3d 3c 9f 24 79 3e 80 d3 c0 3d
       -0.17890611 0.011543004 0.24330376 0.094153404
0002c0 f0 c0 94 be 24 bb 41 3d 13 b7 ad bc c9 28 19 3e
       -0.2905345 0.04729761 -0.02120546 0.14956965
0002d0 fc f7 80 3e ad 82 bc 3e 10 1b 70 be 8b 4e c5 3e
       0.25189197 0.36818448 -0.23447824 0.38536486
0002e0 09 d6 2c 3e 17 96 0b 3e 96 48 e0 bb cc 7e 2e 3e
       0.16878523 0.13631473 -0.0068445904 0.17040557
0002f0 29 a6 ce 3d d4 8f d4 3d 9c 75 81 3e 68 c9 bf 3e
       0.10090286 0.103789955 0.2528504 0.37458348
000300 e8 e8 06 3d 22 3a 08 be 14 9d 89 be 55 7f 00 be
       0.03293696 -0.13303426 -0.26877654 -0.12548573
000310 8b 5b 60 be ef b3 35 3c 51 eb 6f 3c 47 cb d1 3d
       -0.21909921 0.011090263 0.014643506 0.1024385
000320 b5 48 7a 3e c4 04 a1 be 8c 9c e4 bd 83 b7 37 be
       0.24441798 -0.31448948 -0.111626714 -0.17941098
000330 82 9b ba bc f2 0e 99 3e bb 38 49 bd e2 cc c1 3e
       -0.02277923 0.29894215 -0.049126368 0.37851626
000340 97 19 ea 3c 72 a6 e8 3d 0b 56 af 3c ee 56 81 3e
       0.028576655 0.11359872 0.021403333 0.25261635
000350 07 0a 2a be a4 fe 8b 3e 5e 60 1c 3d cd e5 2d 3e
       -0.16605388 0.27342713 0.03817784 0.16982193
000360 34 d1 84 3e 65 fe b5 3e 52 18 18 be a4 f5 58 3c
       0.2594086 0.3554565 -0.14853027 0.013242159
000370 8d 09 6e be d0 b8 c4 be ad 80 61 3e 28 38 05 be
       -0.23245831 -0.3842225 0.22021742 -0.13009703
000380 08 47 81 3c 54 16 a0 3e 54 5b b6 3e 01 c7 1a be
       0.01578094 0.31267035 0.35616553 -0.15114976
000390 03 cc b7 be d2 eb 95 be 94 0c 6c 3c 6e 7f 2f 3e
       -0.35897836 -0.2928148 0.014407296 0.17138454
0003a0 55 3e f6 bc 4b 13 98 3e b6 13 5c be 15 c3 4c 3c
       -0.03005902 0.2970222 -0.21491894 0.012497683
0003b0 41 9d 7e be 24 b9 33 3d d0 13 67 be 70 13 ec bd
       -0.24864675 0.043877736 -0.22566152 -0.11527145
0003c0 72 65 bd 3d 7f e2 a4 be 1b 70 59 bd 07 84 90 3e
       0.09247865 -0.32204053 -0.053085428 0.2822573
0003d0 d3 de 84 3d d6 bf 22 3c 69 04 bb be 80 a7 55 be
       0.06487813 0.009933433 -0.36526802 -0.20864677
0003e0 57 bc 89 3e 86 96 94 be a1 f6 aa 3e 45 bd 62 be
       0.26901504 -0.2902109 0.33391288 -0.22142513
0003f0 49 b1 9e be 73 88 35 3d 99 ad 98 be 42 2f cf bc
       -0.30994633 0.04431958 -0.29819945 -0.025291089

net.0.bias f4 [32]
000000 e4 72 20 be 24 b0 1c be a1 5e 7f 3e d0 ae c7 3d
       -0.15668827 -0.15301567 0.24938442 0.0975014
000010 50 24 2b 3e 16 34 57 3e e5 d6 55 be 76 24 7d 3d
       0.16713071 0.21015963 -0.20882757 0.06180235
000020 0a 6c a9 3d 34 40 ef 3d 09 a8 3f 3e 83 52 05 3e
       0.0827256 0.11682168 0.18716444 0.13019757
000030 e2 d6 8e 3e a5 14 8b be 05 b3 ae bd 7e fc b5 3e
       0.27898318 -0.27164188 -0.08530239 0.355442
000040 f8 36 10 bd 8d 43 8d be 51 28 88 3d fb 66 ed 3d
       -0.035208672 -0.275906 0.06648315 0.115919076
000050 06 db 2f 3d 35 99 34 be 18 0a 1b 3c e1 00 66 3e
       0.042933486 -0.17636569 0.009462856 0.22461273
000060 9b 2b 28 3e f1 22 99 3e c1 66 88 bd 0d 2e 50 be
       0.16422884 0.2990947 -0.06660224 -0.20330067
000070 44 4c 3f 3e 0b bf 57 be 97 e7 66 bd 2d fb 59 be
       0.18681437 -0.21068971 -0.056373205 -0.21287222

net.2.weight f4 [64, 32, 3]
000000 97 41 de bc 5a 77 71 bc f3 85 44 3e b3 8c 1b 3d
       -0.027130885 -0.014737928 0.19191723 0.037975978
000010 58 e3 d4 3c 40 7c e8 3d 7f 55 02 3e 5f fa 3b 3e
       0.025987312 0.11351824 0.12727927 0.18357228
000020 5b 3e d1 3d 4a ae ca bd 7d af 41 be 1c 3e 8b bc
       0.102169715 -0.09896524 -0.189146 -0.01699739
000030 47 66 a8 3c f1 03 92 3d 8b 70 01 bd f2 b8 cd 3c
       0.020556582 0.07129658 -0.03160147 0.025112603
000040 37 cb b8 3d 5f e9 db 3d 80 a7 c3 bd 09 0a ac 3b
       0.09023135 0.107378714 -0.095534325 0.0052502197
000050 1d f6 48 3d c7 a7 70 bd 5a 05 6a bd 9c 1b 81 bd
       0.049062837 -0.058753755 -0.05713401 -0.06304094
000060 6f 18 9d bd a3 f8 f5 bc 48 8d 44 bd f7 95 be bd
       -0.07670676 -0.030025786 -0.0479863 -0.09305947
000070 6f d2 c4 bd 60 d9 a4 3d 6f fc 61 bb 84 52 e1 3d
       -0.096104495 0.080492735 -0.0034482738 0.11002067
000080 22 f3 13 bd 01 8e b4 bd d8 77 8e bd e2 e1 b6 bc
       -0.03612054 -0.088161476 -0.06956452 -0.022324506
000090 4f 52 74 3c 48 03 3a 3d 72 19 eb bc 84 46 c9 bc
       0.014912202 0.045413285 -0.028698657 -0.024569757
0000a0 01 f4 61 3d 36 e6 92 3d 78 5f 15 bc b2 58 bf bd
       0.05516434 0.071728155 -0.009117 -0.09343089
0000b0 72 4d 76 bd f1 0b 1d 3e 9a b3 47 3c 9f 11 04 3d
       -0.06013245 0.15336587 0.012188816 0.032243367
0000c0 14 c1 0c bd 42 3e 74 bd 14 2e 5e 3d 29 96 da bc
       -0.03436382 -0.059629686 0.054243162 -0.02668293
0000d0 b3 26 11 bc 3b cf 89 bd e2 fb 77 3d 1f f8 07 3d
       -0.008859324 -0.06728979 0.06054295 0.03319561
0000e0 5f f2 82 bd 07 28 1a bd b7 4f 67 3b a8 7d b8 3d
       -0.06393885 -0.03763583 0.0035295316 0.09008342
0000f0 84 db 88 3d 60 e2 7b 3d fa 8f a5 bd fc 1c 13 bd
       0.06682494 0.061495185 -0.08084102 -0.035916314
000100 a9 8d 0b bd dd b7 06 bd 83 cb 5b 3c 25 2f 40 3d
       -0.034070645 -0.03289019 0.01341522 0.04691996
000110 c6 92 9f 3d 62 d5 47 3e 0f b3 ea 3c a1 0a ed 3d
       0.07791667 0.19514993 0.028649835 0.11574293
000120 a6 fa 31 3e cc 1c d1 3d f7 6d b9 3d a3 74 12 3e
       0.17380771 0.10210571 0.09054177 0.14302306
000130 0e 0b 0a 3e 2c c6 9e 3d f6 58 c9 bd 1a 2a 24 be
       0.1348078 0.07752642 -0.09831421 -0.16031685
000140 74 e4 35 bc a8 36 54 bd 9b 63 06 bd 8c 3d 0a bb
       -0.011101831 -0.051809937 -0.032809835 -0.0021093814
000150 4f 9d b3 bd 6d 38 c6 3c f2 83 f5 bd 63 80 67 3d
       -0.087702386 0.024196828 -0.11988057 0.056518923
000160 66 c6 f4 bc 64 3a 86 bd c0 ae 1b 3b dc 5b 8f bd
       -0.02987976 -0.06554106 0.0023755282 -0.06999943
000170 6e 20 a6 3b 18 ac eb bd f8 ac b5 bd 7a cc 06 be
       0.005069784 -0.11507434 -0.08870882 -0.13163939
000180 91 a0 0e 3d 71 c7 97 3d 5c d7 f8 b9 aa fe 1d 3d
       0.034821097 0.07411087 -0.000474627 0.038572945
000190 22 c2 a5 3d 71 d1 1b bd 8d 66 ef bd b1 7f 6c bd
       0.080936685 -0.038041536 -0.11689482 -0.057738964
0001a0 5b 5b e1 bd 99 7b a2 3c fa f2 18 3d 77 78 49 bd
       -0.11003753 0.019834327 0.037341096 -0.04918715
0001b0 b9 4c a3 bc 0d 5b 0d 3d e9 23 60 3d 05 ed ba bd
       -0.019934045 0.03451066 0.054721747 -0.09127239
0001c0 93 08 b7 3c 4d 7f ff bd ec c8 32 bd a9 73 81 3d
       0.022342956 -0.124754526 -0.043648645 0.063208885
0001d0 d0 27 01 bd 3d 00 5b bd 2a 85 dd bd db f2 94 bd
       -0.03153211 -0.053467024 -0.10816415 -0.072728835
0001e0 65 b6 1f bc d2 de fc 3c 3d 19 69 3d a4 f9 6d 3d
       -0.009748076 0.030867968 0.056908835 0.058099404
0001f0 89 80 90 bd 66 f9 91 3d 40 b5 6b bd 02 83 5d 3d
       -0.07055766 0.07127647 -0.0575459 0.054080017
000200 77 c3 6d bc a4 db 10 3d 0d 85 a3 3d fd 7f 58 3d
       -0.0145119345 0.035365716 0.07984362 0.052856434
000210 df 0b e5 bd ef d7 0c bc 3e ae d8 3c 6e 9a 3b bd
       -0.11183905 -0.008596404 0.026450273 -0.045801573
000220 5a 84 bb bd c0 e7 03 be 1a 02 05 3d 24 d6 4c bd
       -0.091561034 -0.12881374 0.032472707 -0.050008908
000230 aa 03 a4 bd c4 86 1a 3c 05 3d 8e bd 95 47 6c 3d
       -0.08008511 0.009431545 -0.06945232 0.057685453
000240 58 77 5f bd 1e 22 1d 3d a9 96 10 3d df 04 77 3d
       -0.054557174 0.038362615 0.03529993 0.06030738
000250 11 03 e9 3d 0c 28 8c 3c b8 ac 78 bd ab e5 3f bb
       0.11377538 0.01710894 -0.060711592 -0.002928118
000260 9c 52 ef bd dd 7c f7 bd e3 68 b1 bc c2 1f fa bc
       -0.11685678 -0.12084363 -0.02165646 -0.030532721
000270 7d 33 e3 bd 09 df 11 bd 08 d9 c4 bb b5 de a8 3d
       -0.11093805 -0.035613094 -0.0060073175 0.08245603
000280 bc cb 01 3d 94 cd 2b bc be a9 87 bd 3e 70 6f bd
       0.031688437 -0.010486025 -0.06624173 -0.058456652
000290 80 f8 a0 bd 76 61 f0 bb b3 bc 84 bd 86 e1 b1 bd
       -0.078598976 -0.007335837 -0.06481304 -0.08685593
0002a0 1b 64 a3 bd 26 41 37 3c 3a 4b 38 3c 5f ea ea b9
       -0.07978078 0.011184966 0.011248404 -0.00044806578
0002b0 00 8c 4f 3d 78 6d 6f bc e4 88 2a bd 36 46 67 3d
       0.050670624 -0.014613502 -0.041634455 0.056463443
0002c0 d0 ea 9a 3d 68 f2 5a 3d 51 0b 16 bd ce 83 3b 3d
       0.07564318 0.053453833 -0.036631886 0.045779996
0002d0 21 98 82 3d 14 4b 47 bd f9 fa 21 bd e0 62 9f 3c
       0.063766725 -0.048655584 -0.039545987 0.019456327
0002e0 7a 09 a9 ba f5 8e c7 3b 5c f1 99 39 4e 51 02 3c
       -0.0012896501 0.00609004 0.0002936226 0.007953955
0002f0 1e 39 9c 3c 11 27 81 bd b2 48 a4 3d e4 b2 5e bd
       0.019070204 -0.063062795 0.08021678 -0.054369822
000300 6e d1 54 be 25 88 1f be cb 10 43 be be 6d 26 3e
       -0.20783016 -0.15579279 -0.19049375 0.16252801
000310 b7 7d 63 3e db d9 a0 3d 38 b0 be bd 5b 46 97 bb
       0.22215925 0.07854053 -0.09310955 -0.0046165413
000320 ce 33 d3 bd 81 75 38 3d 71 50 ca bc 80 91 31 3d
       -0.10312615 0.045033935 -0.02469656 0.04335165
000330 d6 71 d6 3d c3 b0 13 3e 59 23 6d 3d 75 f2 9c bc
       0.10470931 0.14422898 0.05789504 -0.019158581
000340 85 f7 2a 3c 6f b5 26 3e 8c 88 cc 3d 3d 00 20 3e
       0.01043499 0.16280149 0.09986982 0.15625091
000350 19 ea 06 3e 31 40 d4 3c 1a 66 6c 3d fa 9c a2 3d
       0.13175239 0.025909515 0.05771456 0.07940097
000360 df 44 73 3d 45 e9 06 be d9 3e cb bc 95 18 cc 3d
       0.059391852 -0.13174923 -0.024810242 0.09965626
000370 ad 3c 29 3e ab b2 c5 3d f0 2b 37 3d dd c6 9f 3c
       0.16527052 0.09653219 0.044719636 0.019504005
000380 bf 19 68 ba 9d 63 00 3e 57 d5 df 3c f6 0b b9 3d
       -0.0008853934 0.12538 0.027323408 0.090354845
000390 d1 b8 d7 3c 1c e3 f0 3d 62 48 af 3d e4 f5 d0 bd
       0.026333245 0.11762068 0.08558728 -0.1020315
0003a0 17 3d 9c bd 5c a6 f4 bd cd 20 17 bc eb f4 78 bc
       -0.076288395 -0.11945793 -0.009224129 -0.015195112
0003b0 3d 80 31 bd 12 9a 4f bd 30 86 c6 bd 88 40 19 be
       -0.04333519 -0.050684042 -0.09693563 -0.14966023
0003c0 d4 eb 57 bc 56 94 10 bd 7d c0 cb bc e8 8e 0a 3d
       -0.013178784 -0.035297714 -0.024872059 0.033827692
0003d0 86 46 15 bd 6f 72 16 bd aa f8 b5 3d 22 b0 22 3e
       -0.03644421 -0.036730226 0.088853195 0.15887502
0003e0 44 eb 4d 3e c3 3d 0f bd 78 f2 e3 bc 7a 10 dd 3c
       0.20109278 -0.03497101 -0.027825579 0.026985396
0003f0 8d 89 82 3d 1e 11 8c 3d e8 37 01 3d 9f 0f 10 3c
       0.06373892 0.06839202 0.031547457 0.008792787

net.2.bias f4 [64]
000000 a9 d8 2b bd 93 36 28 3d 26 f7 10 3e ad 96 60 3d
       -0.04195467 0.04106767 0.1415678 0.054831196
000010 4c 9d 89 bd 91 87 27 bd d5 7f 88 bd 00 ee d9 bd
       -0.06719455 -0.04090077 -0.06665007 -0.10641098
000020 17 bd 01 bd 9e 43 6f bd 28 68 6b 3d be 92 d1 3c
       -0.03167447 -0.058414094 0.057472378 0.025582667
000030 01 95 83 3d ce f0 91 3d 85 7f 5d 3d f4 97 c7 3b
       0.064249046 0.07126008 0.05407669 0.0060911123
000040 19 b8 d7 3d 2b 88 0e bd 0c 8e b8 3d ac 39 22 3d
       0.10533161 -0.03479783 0.09011468 0.03960578
000050 fc 8c 15 bc 6a da fd 3d dc 07 c5 3d 8c 9e ea 3d
       -0.009127852 0.12395175 0.0962064 0.11456022
000060 d8 72 0c 3b fa a9 6a 3d e0 59 9b bc 0b 76 c8 bb
       0.0021430757 0.05729101 -0.018963754 -0.0061175874
000070 c4 4b c7 bd 91 00 02 bd 4d 17 b5 bd 5e ec 1d 3c
       -0.09731248 -0.03173882 -0.08842335 0.009638874
000080 e5 5c 8e 3d 37 31 c4 bd 3e e4 15 3c 30 2f ca bc
       0.06951312 -0.095796995 0.009148655 -0.024680704
000090 dd c1 05 3e 64 4e 76 3c 94 69 4d bc 45 80 f7 3d
       0.13062234 0.015033338 -0.012537379 0.12085012
0000a0 e4 1c 20 bd 61 92 1a bd 58 fa ef 3d 39 db 60 3d
       -0.039090052 -0.037737254 0.11717671 0.054896567
0000b0 a9 ae 0f 3d 6e c7 ac 3c 2f 4b 66 bd 8b 35 cc ba
       0.03507868 0.02109119 -0.056224044 -0.0015579922
0000c0 ea 22 26 bc 69 05 83 3d 28 c7 7d 3d db 51 86 bd
       -0.01014016 0.06397516 0.06195751 -0.065585814
0000d0 79 ec 8b 3d c3 81 8f 3c e6 08 07 3e ac dc d5 3a
       0.06832213 0.01751793 0.13186988 0.0016316376
0000e0 2c 28 81 3d 6e c6 9c bd 2b 23 b3 3d 47 a0 bb bb
       0.0630649 -0.07655035 0.08746942 -0.0057258937
0000f0 e2 9b 48 bd 36 3b 7d 3d 69 47 ff 3c 77 71 fa 3b
       -0.048976786 0.061824046 0.03116198 0.0076429206

fc.weight f4 [2, 64]
000000 16 aa 3d 3e d0 1c 94 bd 89 75 3a be 07 8a 46 bb
       0.18521914 -0.07232058 -0.18208899 -0.0030294673
000010 63 64 9b 3d 97 ef 28 be fd 3f 83 bd c8 08 c8 bd
       0.075875066 -0.16497646 -0.06408689 -0.097673
000020 40 84 3e be cb 68 1b 3e e6 e4 45 bd d3 ff 25 be
       -0.18605137 0.15176694 -0.048313998 -0.1621087
000030 a7 33 25 3e 71 f3 f7 3d b4 81 06 3e f5 26 53 3e
       0.16132985 0.1210698 0.13135415 0.2062033
000040 64 63 9b bc 43 8d ce 3d fe 56 da 3d 80 aa 4a 3d
       -0.018968292 0.10085537 0.10661124 0.049479008
000050 59 b4 02 be 25 1e 36 3e c8 cd 2b 3e ea 5a 1a 3e
       -0.1276411 0.17784937 0.16777718 0.15073743
000060 35 0d 4b 3e d3 f6 01 3d bb 74 4b 3e 29 8f e2 3c
       0.19829257 0.03172953 0.19868748 0.027656155
000070 91 e3 62 bd 24 ba 99 bd be 45 e5 3d a9 3e 9d 3d
       -0.055392805 -0.07506207 0.11194943 0.07677967
000080 74 76 ca 3d 70 5d b8 bd e0 51 8e 3c 21 fa 42 3e
       0.098858744 -0.09002197 0.017373025 0.19040729
000090 4f af b3 3d ba bf fe bc 83 66 35 be 0a d5 b3 3d
       0.08773672 -0.031097282 -0.17714886 0.08780868
0000a0 c4 4e bf bc c4 23 ca bd 17 91 c2 3d de 4f 0a 3e
       -0.023352988 -0.09870103 0.0950033 0.1350703
0000b0 ca 41 67 bb 71 b0 20 3e 09 34 52 bc 07 fb 56 3e
       -0.0035287016 0.15692307 -0.012829789 0.20994197
0000c0 03 21 dc 3d 89 c7 21 be ee 43 00 3e da ce 3a bc
       0.10748484 -0.15798773 0.12525913 -0.011401856
0000d0 e0 28 88 3d 42 ed c9 bd 85 6a 33 3e 8f 7b 8e 3d
       0.06648421 -0.098597065 0.17521103 0.06957161
0000e0 55 24 cb bd 6e a5 b5 bd 59 b4 0e 3e 07 bc a7 bc
       -0.09919039 -0.08869444 0.13935985 -0.0204754
0000f0 41 e8 89 bd 70 84 eb bd 44 6b 10 3c d8 8d b0 bd
       -0.06733752 -0.1149987 0.008814637 -0.086208045
000100 a9 56 52 be b4 f6 5c 3d 87 50 a8 3c 34 be 5d 3e
       -0.2054087 0.053946212 0.02054621 0.21654588
000110 54 3d ed bc dd ad 15 3e 52 69 27 3e 5a 6a ca bd
       -0.028959908 0.14617105 0.1634877 -0.09883566
000120 43 52 2e 3e bd bc 32 be b9 98 5a 3d 98 65 f6 3d
       0.17023568 -0.1745481 0.053368304 0.12031096
000130 c0 b8 05 be 0f ee b3 bd 72 c9 cd bd 9c fb 19 be
       -0.13058758 -0.087856404 -0.10048188 -0.15037388
000140 ba df 3e be ed 98 55 bd 2a 21 fb bd b5 db 3f be
       -0.18640032 -0.052147795 -0.12262185 -0.18736155
000150 02 86 04 3e 16 3e ac bd 85 74 33 be 4d 66 9b bc
       0.12941745 -0.084102795 -0.17524917 -0.01896968
000160 54 6e 17 be 38 51 ea bd 88 f5 91 bd 8f f1 c4 bd
       -0.1478818 -0.114412725 -0.071269095 -0.09616386
000170 00 dc 8d bc f7 24 39 3e 2b 8a 4a be 88 bd d9 bd
       -0.017316818 0.18080507 -0.1977927 -0.10631853
000180 42 c3 de bd 5a 7f c1 bd 44 b0 f8 bd d5 2b 54 bd
       -0.10877086 -0.094481185 -0.12142995 -0.051799614
000190 34 ae 01 be 60 2c d6 bd 7a 1b c0 3d 54 0f 06 be
       -0.1266411 -0.104576826 0.09380241 -0.13091785
0001a0 65 45 22 3e e2 9d a5 bd 7d 15 37 bd c2 2b 2f bd
       0.15846784 -0.080867544 -0.044698227 -0.04276634
0001b0 6f ee a0 3d 9a da 21 3c e3 a6 3c 3e 73 ba 60 bd
       0.078579776 0.009878779 0.18423037 -0.05486531
0001c0 33 06 cc 3d 0c b5 16 3e 3e 8c 33 be 40 a5 1f 3d
       0.0996212 0.14717501 -0.17533967 0.038975954
0001d0 a0 70 f7 bd ec ae fc 3d 5a 67 0b be b5 bb fd bd
       -0.120820284 0.12338051 -0.13613644 -0.12389318
0001e0 5d c9 ec 3d cf cf e6 bc 33 29 c9 bd 28 5a 44 be
       0.115618445 -0.028175263 -0.09822311 -0.19175017
0001f0 79 e6 8b bd 1f 27 2e 3e 30 94 3e 3e 66 e6 27 3e
       -0.068310685 0.17007111 0.18611217 0.16396484

fc.bias f4 [2]
000000 9a ad ff bb fe 12 41 3d
       -0.0078026773 0.047137253
