Project/runs/lstm_testpos_win512/best.pt (torch, 73841 bytes, 6 tensors)

lstm.weight_ih_l0 f4 [256, 3]
0	0xbd8fd681	-0.07023335
1	0xbca37c4a	-0.019956727
2	0xbd2134dd	-0.039357055
3	0x3dd57bf7	0.10424035
4	0x3d8f4e44	0.0699735
5	0xbd47f781	-0.048820022
6	0xbc9a3577	-0.018824322
7	0xbda2d9e0	-0.079517126
8	0x3c66b91c	0.014082219
9	0xbca0ccb1	-0.019628854
10	0xbce04151	-0.027374895
11	0xbc57b21e	-0.013165025
12	0xbde57d0c	-0.112054914
13	0x3bf90c83	0.0076003685
14	0xbdc55704	-0.096357375
15	0x3d86c4a3	0.06580474
16	0xbdfb921a	-0.12283726
17	0xbd6765a0	-0.0564934
18	0xbd347ba2	-0.044063218
19	0xbd482b9b	-0.04886971
20	0xbdb10c2f	-0.08644902
21	0xbdd5a061	-0.104309805
22	0xbda316ad	-0.079633094
23	0xbe0ca85e	-0.13736102
24	0xbcd76ff1	-0.026298495
25	0xbdf4444f	-0.11927091
26	0xbcfa61b2	-0.030564163
27	0x3d8c3621	0.06846262
28	0xbd7395b5	-0.059468944
29	0xbc843d21	-0.01614243
30	0x3da62ec7	0.08114391
31	0xbc63a771	-0.013894902
32	0xbd02d46a	-0.031940855
33	0xbcb191ed	-0.021676028
34	0xbc46db1c	-0.012137201
35	0xbd38dec4	-0.04513432
36	0x3d009d0b	0.031399768
37	0xbc33a397	-0.010964296
38	0x3dad572b	0.084638916
39	0x3d36b6cd	0.044607926
40	0x3d964a4c	0.0733839
41	0xbe012324	-0.12611061
42	0xbb166879	-0.0022950454
43	0x3d972484	0.07380012
44	0x3ddd4834	0.10804787
45	0xbd3f6c4b	-0.046734136
46	0x3dedd9a8	0.1161378
47	0x3d87515d	0.06607316
48	0x3ce6f979	0.02819513
49	0xbdc97fda	-0.09838839
50	0x3e047ec8	0.12938988
51	0x3d0ef7e5	0.03490438
52	0x3c8825aa	0.016619522
53	0xbc59a1c9	-0.0132832015
54	0x3dc70402	0.09717561
55	0x3de7d979	0.113207765
56	0xbb32e0de	-0.0027294676
57	0xbd11e84c	-0.035621926
58	0x3cd48903	0.025944239
59	0x3e0b49ec	0.13602418
60	0x3d215ff1	0.039398137
61	0x3abff36d	0.001464469
62	0x3a892cf5	0.0010465669
63	0xbd9b2e6c	-0.07577214
64	0xbd95978c	-0.07304296
65	0x3cf9a786	0.03047539
66	0xbde82c13	-0.113365315
67	0x3e050a97	0.12992321
68	0xbd52cc9a	-0.051464655
69	0x3c86480e	0.01639178
70	0xbaa292c3	-0.0012403358
71	0x3d0ac3a6	0.03387799
72	0xbbfa3319	-0.007635486
73	0x3cc5657f	0.024096249
74	0xbddbca02	-0.10731889
75	0xbdb50e89	-0.08840663
76	0x3dac8a72	0.08424844
77	0x3db8f706	0.09031491
78	0x3db3ff31	0.08788908
79	0x3d466228	0.048433453
80	0xbd10d206	-0.035356544
81	0xbde4e90c	-0.11177263
82	0xbd65c5d3	-0.056096863
83	0xbc812cc1	-0.01576841
84	0x3d05c044	0.032654062
85	0x3d0f53cd	0.034992028
86	0xbde5cda8	-0.112208664
87	0x3dc8e948	0.0981012
88	0x3d4ca1af	0.04995888
89	0x3de30227	0.11084395
90	0x3d9015d7	0.070354156
91	0xbd4b15a1	-0.049581174
92	0x3da02af3	0.07820692
93	0xbc897996	-0.01678161
94	0xbde18048	-0.11010796
95	0xbd40da0b	-0.047082942
96	0x3d91c7e3	0.071182035
97	0xbd5adbb6	-0.05343219
98	0xbdb8d57b	-0.09025093
99	0xbdac6299	-0.084172435
100	0xbd2f30bd	-0.04277109
101	0xbd26f9dc	-0.04076563
102	0xbd936481	-0.07196904
103	0x3d2bee22	0.041975148
104	0x3d37a437	0.04483434
105	0xbde93b29	-0.11388237
106	0x3d9a8fee	0.07546984
107	0xbdbdfc45	-0.09276632
108	0xbd32ad1d	-0.043622125
109	0xbdd17561	-0.102274664
110	0x3dab6aa8	0.083699524
111	0xbdb8eba6	-0.09029321
112	0x3df01cde	0.11724256
113	0xbd6929e4	-0.056924716
114	0x3d1e7b5e	0.03869187
115	0xbd94032a	-0.07227166
116	0xbd149002	-0.03627015
117	0xbda1ae57	-0.07894581
118	0xbca46343	-0.020066863
119	0x3da29539	0.07938618
120	0x3de7dd6a	0.11321528
121	0xbd0b6936	-0.034035884
122	0xbcd85bcb	-0.026410958
123	0x3d47774d	0.04869776
124	0x3cb8ebb7	0.022573335
125	0xbd30b7ee	-0.04314416
126	0x3d16ab26	0.036784314
127	0x3d5756bc	0.05257295
128	0x3baef721	0.0053395187
129	0xbdb89f73	-0.090147875
130	0x3d96a2bd	0.073552586
131	0x3d30bf81	0.043151382
132	0x3def8858	0.116959274
133	0xbdb240c0	-0.08703756
134	0xbd9b93cb	-0.07596549
135	0x3d8ce4de	0.068795905
136	0xbdd8b02f	-0.10580479
137	0x3ab22d30	0.0013593789
138	0xbd903515	-0.070413746
139	0xbcfed4f2	-0.0311074
140	0xbdc50974	-0.09620944
141	0xbcbee2c2	-0.023301486
142	0xbdcfdb00	-0.10149193
143	0x3d9ed731	0.07755888
144	0x3d9f62b6	0.077824995
145	0xbdcdb3d0	-0.10044062
146	0x3df364b2	0.118844405
147	0xbcaf483b	-0.021396747
148	0x3ceb6249	0.02873339
149	0x3d5b2f2b	0.05351178
150	0xbe07751a	-0.13228264
151	0x3d122cc0	0.03568721
152	0x3ba5cf7c	0.0050601345
153	0xbd67fb0b	-0.056635898
154	0x3defb577	0.117045335
155	0x3de15c2c	0.110039085
156	0xbdbd4f6b	-0.092436634
157	0xbd1db4fe	-0.038502686
158	0xbd92dc63	-0.07170942
159	0x3d5eb7c6	0.05437448
160	0xbde546df	-0.11195158
161	0xbd111e7c	-0.035429463
162	0xbcbec5c8	-0.023287669
163	0x3d6d5d57	0.057950344
164	0xbd014c2f	-0.031566795
165	0x3de145fd	0.10999677
166	0xbc78ebf3	-0.015192973
167	0x3d17a971	0.037026826
168	0x3c0c75ae	0.008572979
169	0xbc29038b	-0.010315786
170	0xbad9d04e	-0.0016617866
171	0xbdabde99	-0.083920665
172	0x3c3c6650	0.011499003
173	0x3da1ade5	0.07894496
174	0xbdc2cc16	-0.095115826
175	0xbb706507	-0.003668131
176	0x3dbdb954	0.09263864
177	0x3e10184d	0.1407177
178	0xbdbfdcd1	-0.09368289
179	0xbd3aaef8	-0.04557702
180	0x3cc72f00	0.024314404
181	0xbd68ceda	-0.056837894
182	0x3cc15ac2	0.023602847
183	0xbcc525b2	-0.024065826
184	0x3dd6e542	0.10492946
185	0x3d8615fa	0.065471604
186	0x3d2075b7	0.03917476
187	0xbdcbdeda	-0.09954615
188	0xbccdf51b	-0.02514129
189	0x3daaa443	0.08332112
190	0xbddd47be	-0.10804699
191	0xbcfef335	-0.03112183
192	0x3d8fbd67	0.070185475
193	0x3d2d2ec8	0.042280942
194	0xbd3d1f80	-0.04617262
195	0xbdfa6b0f	-0.12227451
196	0xbd6ac8d2	-0.057320423
197	0xbd4e1896	-0.050316416
198	0xbd21515e	-0.03938424
199	0x3de60807	0.11232
200	0x3d6733c1	0.05644584
201	0x3dd3bdcb	0.103389345
202	0xbdc59147	-0.0964685
203	0xbd3cdcb2	-0.04610891
204	0x3d9d0101	0.07666207
205	0xbce4e094	-0.027939118
206	0x3daec26e	0.08533178
207	0x3dfb04d8	0.12256783
208	0xbdb65533	-0.08902969
209	0xbd5f61fe	-0.054536812
210	0x3d31fd57	0.043454494
211	0x3d6c5382	0.057696827
212	0x3d967ad0	0.073476434
213	0x3d9e69f3	0.07735052
214	0xb733c4e0	-1.071507e-05
215	0x3dad09fc	0.0844917
216	0x3ce93627	0.028468205
217	0xbdcdffb4	-0.10058537
218	0xbbfb09fb	-0.007661102
219	0xbc8bf493	-0.017084396
220	0xbd7ae53e	-0.06125378
221	0xbd39d392	-0.045367785
222	0x3cd8326f	0.026391236
223	0x3b4e5e66	0.0031489371
224	0xbd51a8e6	-0.051186465
225	0x3b5c3c0e	0.0033605131
226	0xbd96a903	-0.07356455
227	0x3d14c524	0.03632082
228	0x3da83cf2	0.082147494
229	0x3d8d0329	0.068853684
230	0x3dd54f93	0.10415568
231	0xbdd54c7d	-0.104149796
232	0xbdf0be7d	-0.11755083
233	0xbd0bc9ab	-0.034127872
234	0xbd842ccc	-0.06453857
235	0xbd6b3a0b	-0.0574284
236	0x3d03e869	0.032204065
237	0xbc7fcaff	-0.015612363
238	0x3db24e7d	0.08706377
239	0x3d6de8ec	0.05808346
240	0xbdb0d867	-0.086350255
241	0xbd0f4abc	-0.03498338
242	0xbcc5965a	-0.024119545
243	0x3c9d8e54	0.019232906
244	0x3e02a17b	0.12756912
245	0xbd29d7a5	-0.04146542
246	0x3d7ef09c	0.06224118
247	0x3d288860	0.041145682
248	0x3d7974ad	0.060902286
249	0xbe0f278d	-0.13979931
250	0x3d928120	0.07153535
251	0xbd82966c	-0.06376347
252	0x3d29d3c8	0.041461736
253	0xbdaee373	-0.08539476
254	0xbd4db9d7	-0.05022606
255	0x3d107d75	0.035275895

lstm.weight_hh_l0 f4 [256, 64]
0	0xbd583d9a	-0.052793123
1	0xbddd12e2	-0.10794617
2	0x3b30e2a3	0.0026990555
3	0xbbf1090c	-0.007355815
4	0x3d6be759	0.057593677
5	0xbd1c862e	-0.0382139
6	0xbd251685	-0.04030468
7	0xbd1f7d81	-0.03893805
8	0xbd8fac17	-0.070152454
9	0xbce47e76	-0.027892333
10	0x3dc15d89	0.094416685
11	0x3d669b92	0.056300707
12	0x3df94d59	0.12172956
13	0x3dd36bfc	0.10323331
14	0x3dac30de	0.08407758
15	0xbdc1e220	-0.09466958
16	0x3df18f59	0.117949195
17	0x3e0fd491	0.14045931
18	0xbd93e2ac	-0.072209686
19	0xba30f489	-0.0006750306
20	0x3ce8b6db	0.028407505
21	0xbd648f8e	-0.055800967
22	0x3d45181b	0.048118692
23	0x3c4f7e00	0.012664318
24	0x3de2aff6	0.11068718
25	0xbe0c4018	-0.13696325
26	0xbcba0d56	-0.022711437
27	0xbdb159ef	-0.086597316
28	0xbd8d5bf8	-0.06902307
29	0x3c8055b0	0.015665859
30	0x3dc4d49a	0.09610863
31	0x3c289f19	0.010291838
32	0xbdecdd24	-0.11565617
33	0x3dc79388	0.09744936
34	0xbd3dc339	-0.046328757
35	0xbdfac9e6	-0.1224554
36	0xbdbfc03f	-0.0936284
37	0xbd85211c	-0.06500456
38	0xbc8ac8d0	-0.016941458
39	0x3d8433a7	0.064551644
40	0xbe1147fd	-0.14187618
41	0x3ddbd21c	0.107334346
42	0xbd3eb50f	-0.04655939
43	0x3de99cd2	0.11406864
44	0x3daba7f5	0.08381645
45	0xbda91a28	-0.08256942
46	0xbd566cd7	-0.05234989
47	0x3d92fad6	0.071767494
48	0xbdfd1028	-0.12356597
49	0xbda209fe	-0.07912062
50	0xbd740651	-0.059576336
51	0x3e076f10	0.1322596
52	0x3de79d6a	0.11309321
53	0xbd807e5b	-0.062741004
54	0x3de132a6	0.109959885
55	0x3be19222	0.0068838755
56	0xbc27a0bb	-0.010231192
57	0xbd968b0c	-0.0735074
58	0x3d7accae	0.061230354
59	0x3c36ed90	0.011165038
60	0x3e0022d2	0.12513283
61	0xbd9c6ab3	-0.07637539
62	0x3ced07fc	0.028934471
63	0x3dad7261	0.08469082
64	0xbdab799b	-0.08372804
65	0xbce5f5ec	-0.028071366
66	0xbd5e572e	-0.05428236
67	0x3de590ad	0.11209235
68	0x3de83c96	0.11339681
69	0xbbddd02d	-0.0067692013
70	0x3d9b24f0	0.07575405
71	0x3d11d6e1	0.035605315
72	0x3d365309	0.044512782
73	0x3dd1adac	0.102382034
74	0x3cac738b	0.021051189
75	0xbdb6549e	-0.08902858
76	0x3d707de2	0.0587138
77	0x3e08a549	0.13344301
78	0x3d2216c7	0.039572503
79	0x3cedf953	0.029049551
80	0x3d94bc6e	0.072625026
81	0x3dab9873	0.08378687
82	0xbd4f963f	-0.050680395
83	0x3dab9de3	0.08379724
84	0x3c92248b	0.01783969
85	0xbd65c27e	-0.056093685
86	0x3df8cd9a	0.121485904
87	0xbbc7ad7f	-0.0060936804
88	0x3dd8d2de	0.10587095
89	0x3d83ae03	0.064296745
90	0x3d98ea91	0.07466615
91	0x3dc5258a	0.09626301
92	0x3cbaad8d	0.022787834
93	0x3d4305aa	0.047612824
94	0xbccfb121	-0.025353016
95	0x3d48a22f	0.048982795
96	0x3d4f0f45	0.05055167
97	0x3dcd74bd	0.10032032
98	0xbbd27d8f	-0.006423659
99	0x3d3eb4fe	0.046559326
100	0xbd58b72a	-0.052909054
101	0xbd8849de	-0.06654714
102	0xbd11c14d	-0.035584737
103	0x3d287e91	0.041136328
104	0xbcbea098	-0.023269936
105	0xbde98df6	-0.1140403
106	0xbd0578e4	-0.032585993
107	0x3d1e6acd	0.038676072
108	0x3ddf6bff	0.109092705
109	0x3db78517	0.08960932
110	0xbdd40577	-0.10352605
111	0x3bcd4c21	0.006265179
112	0xbd577250	-0.05259925
113	0xbd8fca0f	-0.070209615
114	0x3ccd099e	0.025029
115	0xbc9462ac	-0.018113457
116	0xbb442142	-0.002992705
117	0xbd373f27	-0.04473796
118	0xbcbac9e1	-0.022801341
119	0x3dc84780	0.097792625
120	0xbcabf9ea	-0.020993192
121	0x3d1222d2	0.03567774
122	0x3c62b00e	0.01383592
123	0xbdc8dd29	-0.09807808
124	0xbab350b3	-0.0013680666
125	0x3de380b3	0.11108532
126	0x3d1f75e9	0.038930807
127	0xbc2442ac	-0.010025661
128	0xbb9cf0c9	-0.004789446
129	0xbdabc607	-0.0838738
130	0x3db34849	0.08754022
131	0xbd8c1a88	-0.06840998
132	0xbd78cac6	-0.060740255
133	0x3d528240	0.051393747
134	0x3c421287	0.011845238
135	0x3dc25649	0.09489114
136	0x3db8853b	0.09009787
137	0x3de3cf81	0.111235626
138	0x3dc02020	0.09381127
139	0x3d6bb28e	0.05754333
140	0xbd82c062	-0.0638435
141	0xbda3f522	-0.0800574
142	0xbe077a10	-0.13230157
143	0xbced1eaf	-0.028945295
144	0xbdaf26fd	-0.08552358
145	0x3d598bd9	0.053111885
146	0x3d06b8d1	0.0328911
147	0x3cbd435b	0.023103407
148	0x3c62621e	0.013817338
149	0xbdcf54ce	-0.10123597
150	0xbdc63e91	-0.09679902
151	0xbdb060cd	-0.08612213
152	0x3db1ee3b	0.08688017
153	0x3d0e0385	0.034671325
154	0x3ddf9242	0.10916568
155	0x3d83fbea	0.06444533
156	0xbd0ba4ef	-0.03409284
157	0xbdc950d4	-0.0982987
158	0xbbf4a83e	-0.007466345
159	0x3de827cb	0.11335715
160	0xbd31e38c	-0.043429896
161	0x3bc364d2	0.0059629465
162	0xbd14c013	-0.03631599
163	0xbd662a94	-0.05619295
164	0xbd06538c	-0.03279452
165	0x3d2eecef	0.042706426
166	0xbb6881d5	-0.0035477777
167	0x3d0a65f8	0.03378865
168	0xbd82fa4f	-0.06395399
169	0xbdb41483	-0.08792975
170	0xbde0d7b5	-0.10978643
171	0x3d94966e	0.07255255
172	0xbddaf51f	-0.106912844
173	0x3e004134	0.12524873
174	0xbdec4a68	-0.11537629
175	0xbc30c010	-0.010787979
176	0xbdd4c490	-0.10389054
177	0xbdf69513	-0.120401524
178	0xbdf067c2	-0.1173854
179	0xbd6d19db	-0.057885986
180	0x3e05f826	0.13082942
181	0x3c1b4f3e	0.009479342
182	0x3dc623ab	0.09674772
183	0x3dac142d	0.08402286
184	0xbda684fc	-0.081308335
185	0x3da99bbf	0.08281659
186	0xbc9933ae	-0.0187014
187	0xbc7791aa	-0.015110413
188	0xbdd13614	-0.10215393
189	0xbc86b0b0	-0.016441673
190	0xbc87a699	-0.016558932
191	0xbd1f4804	-0.03888704
192	0x3d90118e	0.07034598
193	0x3d9b36ee	0.075788364
194	0xbd6445fc	-0.055730805
195	0xbbbff560	-0.0058581084
196	0x3d547c2a	0.051876225
197	0xbd74b6f7	-0.0597448
198	0x3dc0fb4a	0.094229296
199	0xbd0b3bfa	-0.033992745
200	0x3db6571d	0.08903334
201	0xbd9d24bd	-0.07673023
202	0xbdd4326b	-0.10361179
203	0x3d41dc8c	0.04732947
204	0x3b89e6b8	0.004208412
205	0xbdc0c43f	-0.09412431
206	0xbc8870b4	-0.016655304
207	0xbd236ce7	-0.03989878
208	0x3e0d9148	0.13824952
209	0xbd7f6072	-0.062347837
210	0x3e0c6a3b	0.13712399
211	0xbd75a43a	-0.05997107
212	0x3d098b0b	0.033579867
213	0x3dab26a5	0.0835698
214	0x3b9b6f61	0.004743502
215	0xbc8f9f9d	-0.017532164
216	0xbbe6f59a	-0.007048321
217	0xbdb21afa	-0.086965516
218	0x3d8bcabb	0.06825777
219	0xbdb3def2	-0.08782758
220	0xbd08fc08	-0.03344348
221	0x3d487702	0.04894162
222	0x3d794497	0.060856428
223	0x3d16cfc5	0.03681924
224	0xbdc655ff	-0.09684371
225	0xbd0a8607	-0.033819225
226	0x3d162354	0.036654785
227	0x3d8085ab	0.06275495
228	0xbdccee2e	-0.10006367
229	0x3d32546e	0.04353755
230	0xbd5258da	-0.051354267
231	0x3ad841a2	0.0016499052
232	0xbdce7502	-0.10080911
233	0x3d75a2e9	0.059969816
234	0xbe02c8e6	-0.12771949
235	0xbd693222	-0.056932576
236	0x3d9b3bf5	0.07579795
237	0x3dd6088e	0.104508504
238	0xbd1db5cf	-0.038503464
239	0xba199654	-0.00058588875
240	0x3dd7360d	0.10508356
241	0x3c629f0d	0.013831866
242	0xbddc5590	-0.10758507
243	0x3dea4cc5	0.11440424
244	0x3e0111ab	0.12604396
245	0xbda3800b	-0.07983407
246	0x3ca606c3	0.020266896
247	0xbd5e0ea2	-0.054213174
248	0xbde5ef76	-0.11227314
249	0x3dc3b4e2	0.09555985
250	0xbdbf6cdd	-0.09346936
251	0xbc84d819	-0.016216325
252	0xbcbd44aa	-0.02310403
253	0x3ddcc6b2	0.107800856
254	0x3d20a7dc	0.039222583
255	0xbde86c39	-0.11348767

lstm.bias_ih_l0 f4 [256]
0	0xbdab8862	-0.08375622
1	0xbce96f58	-0.028495476
2	0x3e03cc19	0.12870826
3	0xbdeae8dc	-0.11470196
4	0x3c59f003	0.013301852
5	0x3d478e30	0.048719585
6	0x3e0fecdb	0.14055197
7	0x3db3d394	0.0878059
8	0x3da5b2e2	0.0809076
9	0xbda62316	-0.08112161
10	0xbd19dfa6	-0.037566803
11	0xbcacf939	-0.021114932
12	0x3da34edf	0.07974028
13	0xbdc7448a	-0.0972987
14	0xbdd8b7bb	-0.10581919
15	0xbdd0a59c	-0.101878375
16	0x3c54a43b	0.012978609
17	0xbdd760b1	-0.10516489
18	0x3e05ced9	0.13067187
19	0x3dfee240	0.124454975
20	0x3dc0b3ab	0.09409269
21	0x3db9dcbb	0.09075304
22	0xbe07a22c	-0.13245457
23	0xbd5239ce	-0.051324658
24	0xbc4efcb6	-0.012633493
25	0x3df99e8a	0.12188442
26	0xbd499cd5	-0.049221832
27	0xbdd417e3	-0.103561185
28	0xbd763d74	-0.0601172
29	0xbdc678d0	-0.09691012
30	0x3d183152	0.03715641
31	0xbd1b1c4c	-0.037868783
32	0xbc928a9a	-0.017888356
33	0x3d839e88	0.06426722
34	0xbded7662	-0.11594845
35	0x3d332abe	0.043741934
36	0x3d9b4828	0.07582122
37	0xbd777dda	-0.060422756
38	0x3d5cd24f	0.053911503
39	0xbbf035b8	-0.0073306225
40	0x3bb19cc7	0.0054203006
41	0x3e0927ef	0.1339414
42	0xbb7a3e5c	-0.0038184142
43	0xbcf1507a	-0.02945732
44	0xbd8d72cc	-0.069066614
45	0x3dcb9483	0.09940436
46	0xbc69ba44	-0.014265601
47	0x3dd3bbc2	0.10338546
48	0xbd4b6064	-0.049652472
49	0x3dddb508	0.108255446
50	0x3dfb7db8	0.12279838
51	0x3c4d0cea	0.012515286
52	0x3d8f7a61	0.07005764
53	0x3c7e623e	0.015526352
54	0xbb3f6a8e	-0.0029207799
55	0x3cc980a1	0.024597468
56	0xbdb18ff6	-0.086700365
57	0xbdc5fbe0	-0.09667182
58	0x3d053678	0.03252265
59	0x3bd353bc	0.006449191
60	0x3df20c7e	0.11818789
61	0xbdbff969	-0.09373743
62	0x3d32ca7a	0.043650128
63	0x3dd16319	0.102239795
64	0xbd4190fb	-0.047257405
65	0x3d5c4352	0.05377514
66	0x3cf074a4	0.029352494
67	0xbde5d547	-0.1122232
68	0xbd4f9f88	-0.05068925
69	0xbd857bfb	-0.06517788
70	0xbd0e5c55	-0.034756023
71	0x3d9f93ac	0.07791838
72	0xbda57cf2	-0.08080472
73	0xbbf49917	-0.007464539
74	0xbd66565d	-0.056234706
75	0x3c6ffdf9	0.014647954
76	0xbdd7836d	-0.10523114
77	0x3d6f81d9	0.05847344
78	0x3d8f6af5	0.07002822
79	0x3cf9e80c	0.030506156
80	0x3dd36c9f	0.10323452
81	0xbd838f03	-0.06423762
82	0x3d263fce	0.040588193
83	0xbcd67c02	-0.026182178
84	0x3930f5d0	0.0001687624
85	0xbdb77917	-0.08958643
86	0x3d380307	0.044924762
87	0xbd7fdeba	-0.062468268
88	0x3c946d02	0.018118385
89	0xbd8aedc3	-0.06783631
90	0xbd691122	-0.056901105
91	0x3e01ca57	0.12674843
92	0x3e0ff8eb	0.14059798
93	0x3dfa51cc	0.12222633
94	0x3d593429	0.05302826
95	0x3b30bc0f	0.002696756
96	0x3cbe7c0c	0.02325251
97	0x3adb7992	0.0016744605
98	0x3bf74909	0.0075465483
99	0x3daa4433	0.08313789
100	0x3db9b4ba	0.09067674
101	0x3d53038d	0.05151706
102	0x3d587aa9	0.052851353
103	0xbda90f3d	-0.082548596
104	0xbdc575bf	-0.09641599
105	0x3d200aa7	0.03907266
106	0x3da69df5	0.08135597
107	0x3dc68563	0.0969341
108	0xbd911465	-0.07083968
109	0xbd34f53c	-0.044179186
110	0xbd8fe0ce	-0.070253
111	0x3cefee4c	0.029288433
112	0xbc41de44	-0.011832777
113	0x3e00f4bd	0.1259336
114	0x3c9f6c2a	0.019460756
115	0x3d1b1167	0.037858393
116	0x3d62ad49	0.05534104
117	0xbdada393	-0.08478465
118	0xbc5fec98	-0.013667248
119	0xbd524f3e	-0.051345102
120	0xbbe8c236	-0.00710323
121	0xbd82677d	-0.06367395
122	0x3c9e8ca1	0.019354166
123	0x3d922f1e	0.07137893
124	0x3d40af71	0.047042314
125	0x3d9797cf	0.07402002
126	0xbd1eb9f0	-0.038751543
127	0xbcef5b02	-0.0292182
128	0xbd31afd1	-0.043380562
129	0xbde04415	-0.109504856
130	0xba9efa50	-0.0012129042
131	0x3d826451	0.0636679
132	0xbd1a8ea1	-0.037733678
133	0xbd8cd0b7	-0.06875747
134	0x3dc294bf	0.09501027
135	0xbdd0a42e	-0.10187565
136	0x3d6f391d	0.058404077
137	0x3d945be8	0.07244092
138	0x3dabbaed	0.08385263
139	0xbd2bf85b	-0.041984897
140	0xbd1da6f8	-0.038489312
141	0x3d152269	0.03640977
142	0x3d88e6ad	0.06684623
143	0x3d9132d7	0.07089775
144	0xbcd13c58	-0.02554147
145	0x3df3e29a	0.11908455
146	0xbddb3aa4	-0.10704544
147	0xbda4512a	-0.08023293
148	0xbda5b41d	-0.080909945
149	0xbdd903d1	-0.10596431
150	0xbdae5a22	-0.08513285
151	0xbdf18a45	-0.11793951
152	0x3d8e48a0	0.06947446
153	0xbdb9eddc	-0.09078571
154	0xbc410d25	-0.011782919
155	0x3cf90e28	0.030402258
156	0x3d16edde	0.03684794
157	0x3e13aac0	0.14420605
158	0xbdc2e88b	-0.0951701
159	0xbd652f0f	-0.05595308
160	0xbdc9c669	-0.09852297
161	0xbd237cb2	-0.03991384
162	0xbe028efa	-0.12749854
163	0x3d42ef0d	0.047591258
164	0xbdd33292	-0.1031238
165	0x3d054db3	0.032544803
166	0xbdb762d6	-0.08954398
167	0x3db5de09	0.088802405
168	0xbe10d548	-0.1414386
169	0x3d935b5f	0.07195162
170	0xbd6038e6	-0.054741763
171	0xbd069ba7	-0.032863285
172	0xbdf225a3	-0.11823585
173	0xbbd2e8c6	-0.00643644
174	0xbdc55ffe	-0.0963745
175	0x3deb56d3	0.1149117
176	0xbe052aa7	-0.13004552
177	0x3c6e2d40	0.014537156
178	0xbd1e5ebb	-0.03866456
179	0x3dd38280	0.10327625
180	0x3ca850bb	0.020546308
181	0x3dddee8a	0.10836513
182	0x3d4ff016	0.050766073
183	0xbd0f205b	-0.034942966
184	0xbc9bb97d	-0.019009346
185	0x3e12c011	0.1433108
186	0x3e059d43	0.13048272
187	0x3df125fd	0.11774824
188	0xbbe884e9	-0.0070959223
189	0x3e0360ee	0.12829944
190	0x3de8be44	0.11364415
191	0xbdc41e72	-0.095761195
192	0x3d353553	0.044240307
193	0xbd3bc5b4	-0.04584284
194	0x3db9a506	0.09064679
195	0x3ca0eeea	0.019645173
196	0xbd8135be	-0.06309079
197	0x3d1e0d4b	0.038586896
198	0xbc9c83d8	-0.019105837
199	0xbdefd96a	-0.1171139
200	0x3e111121	0.1416669
201	0xbd763b96	-0.06011542
202	0x3e008019	0.12548865
203	0xbdb1e3d4	-0.08686033
204	0xbd20f541	-0.039296392
205	0x380f1620	3.4114462e-05
206	0xbd86216f	-0.06549346
207	0x3c1d1f8f	0.009590044
208	0xbc9e2402	-0.01930428
209	0xbd025201	-0.031816486
210	0x3d0694c8	0.032856733
211	0x3de76854	0.11299196
212	0x3d4e16c5	0.050314683
213	0xbda8a56d	-0.082346775
214	0x3dd46d54	0.10372415
215	0x3db9693b	0.09053274
216	0x3dcc7511	0.09983266
217	0x3cf12245	0.029435286
218	0xbd57a4a4	-0.052647248
219	0xbd7bd896	-0.06148585
220	0xbc7515a2	-0.014958771
221	0xbd393853	-0.04521973
222	0xbd965e4e	-0.07342206
223	0x3dc339c9	0.09532506
224	0x3d94e833	0.07270851
225	0x3da00ae9	0.07814581
226	0x3d070b1b	0.032969575
227	0xbcaaa9f3	-0.020832991
228	0x3b794cb0	0.0038040094
229	0x3df66b39	0.1203217
230	0x3d52e35c	0.051486358
231	0xbce53b1e	-0.02798229
232	0x3df1cb52	0.118063584
233	0x3d230e8b	0.03980879
234	0x3d6986bd	0.057013262
235	0x3d446172	0.047944494
236	0x3dcc15f1	0.099651225
237	0x3da49981	0.08037091
238	0x3dc12406	0.09430699
239	0xbdc58025	-0.09643582
240	0x3b9cc575	0.004784281
241	0xbdd1dd4a	-0.10247286
242	0x3da08a68	0.07838899
243	0x3d4fc1e3	0.050722014
244	0xbd17a785	-0.037024993
245	0xbda5db9c	-0.08098528
246	0xbce58cf1	-0.028021308
247	0x3dc47df3	0.095943354
248	0x3dc75030	0.097320914
249	0xbd8cae18	-0.06869143
250	0x3df8c027	0.12146025
251	0x3de22783	0.110426925
252	0x3a0d0518	0.0005379482
253	0x3ca4cf87	0.020118488
254	0x3dc2cf16	0.09512155
255	0xbdb62692	-0.088940755

lstm.bias_hh_l0 f4 [256]
0	0xbcf917c4	-0.03040684
1	0x3db1b277	0.086766176
2	0x3dfa2fd8	0.12216157
3	0xbd9a49f6	-0.07533638
4	0xbc95a5fd	-0.018267626
5	0x3de67686	0.11253075
6	0x3df993fe	0.121864304
7	0x3dadaebe	0.08480595
8	0xbcbfd4ae	-0.023416843
9	0x3cc0891f	0.023502884
10	0x3e053bcc	0.13011092
11	0xbd8d71aa	-0.06906445
12	0x3dfba06d	0.12286458
13	0xbdb435b8	-0.087993085
14	0xbdc3d74b	-0.09562548
15	0xbda22294	-0.079167515
16	0x3d9cc03d	0.07653854
17	0xbcabe92f	-0.020985214
18	0xbd4bf357	-0.049792614
19	0x3d0d3b13	0.034480166
20	0x3e155d89	0.14586462
21	0xbdd56bbb	-0.104209386
22	0x3d95c836	0.07313578
23	0xbdc263d8	-0.094917
24	0x3de7111f	0.112825625
25	0xbd9ef146	-0.07760863
26	0x3de892dd	0.11356137
27	0x3d7b8b21	0.06141198
28	0x3e0e6f6b	0.1390969
29	0xbc11f3d2	-0.008908229
30	0xbd873b9e	-0.06603168
31	0xbd333952	-0.043755837
32	0x3dedd902	0.116136566
33	0x3ca8031c	0.020509295
34	0xbdb8f348	-0.09030777
35	0x3d277812	0.040885992
36	0xbd9e5942	-0.07731868
37	0xbd1fee28	-0.039045483
38	0xbdc093bc	-0.09403178
39	0x3dba52de	0.09097837
40	0xbda8892d	-0.08229289
41	0xbdbf8c98	-0.09352988
42	0x3ddd7626	0.10813551
43	0xbb7ac6d2	-0.0038265479
44	0x3d4def3c	0.05027698
45	0xbb57c272	-0.0032922295
46	0x3e004a16	0.12528262
47	0x3cc711d7	0.024300499
48	0x3d555e80	0.052092075
49	0x3d867622	0.06565501
50	0x3d5c44fd	0.05377673
51	0xbdbaddc0	-0.09124327
52	0x3d4897ed	0.048973013
53	0x3d66571f	0.05623543
54	0xbccbebec	-0.02489277
55	0x3c365112	0.011127727
56	0xbccb6686	-0.02482916
57	0xbc3195a9	-0.010838904
58	0x3d649c7c	0.055813298
59	0xbdb5a0e5	-0.08868579
60	0x3d9069d4	0.07051435
61	0xbd431f9e	-0.047637574
62	0x3d51392e	0.05107992
63	0xbda1a2f9	-0.07892413
64	0xbdb16d9c	-0.086634845
65	0xbddd634a	-0.108099535
66	0x3a63fda7	0.000869716
67	0xbd5cb144	-0.05387999
68	0x3de88b4d	0.113546945
69	0x3e1436cb	0.14474027
70	0xbdc085b8	-0.09400505
71	0xbc972ee4	-0.018454976
72	0x3de9a4a2	0.11408354
73	0x3d7f81e7	0.062379744
74	0xbdb1391b	-0.0865347
75	0xbd3cbb8f	-0.046077307
76	0xbdcfd2c5	-0.10147623
77	0xbd4c873e	-0.049933665
78	0xbd1601a4	-0.03662266
79	0xbdbde3c8	-0.092719615
80	0x3de84be3	0.11342599
81	0xbd91891b	-0.07106229
82	0x3e1383fe	0.1440582
83	0x3c89f005	0.016838083
84	0xbd8c686a	-0.06855853
85	0xbdd228e9	-0.10261709
86	0x3d183e77	0.037168946
87	0xbd2e9586	-0.042623065
88	0xbd9b84a0	-0.075936556
89	0x3ddcc1eb	0.107791744
90	0x3dd8d40d	0.105873205
91	0x3d9f6481	0.077828415
92	0xbd91ee67	-0.0712555
93	0x3dc9a9b0	0.098468184
94	0x3d793b75	0.06084772
95	0x3daf3967	0.085558705
96	0x3db90763	0.09034612
97	0xbd94198d	-0.07231436
98	0xbd4d5713	-0.05013187
99	0x3d661b9e	0.05617868
100	0x3b25c560	0.0025294647
101	0x3d0cd6f9	0.0343847
102	0xbde94bf0	-0.11391437
103	0xbb5fa425	-0.0034124937
104	0xbd122ff1	-0.03569025
105	0xbc9df794	-0.019283094
106	0xbdd1275d	-0.10212586
107	0xbddbad8d	-0.107264616
108	0x3d7d5c0d	0.061855365
109	0xbdb8573b	-0.09001013
110	0x3dc00e0c	0.09377679
111	0xbb752539	-0.003740622
112	0x3d74cd17	0.0597659
113	0xbcdf7fba	-0.027282584
114	0x3c760d83	0.01501787
115	0x3c9df3b8	0.019281253
116	0x3dff8a4c	0.1247755
117	0xbd5e7de5	-0.05431928
118	0x3dfefeea	0.12450965
119	0xbd95fe0a	-0.07323845
120	0x3de7ba58	0.11314839
121	0xbd7c1650	-0.061544716
122	0x3ce24560	0.027620971
123	0x3e07f738	0.132779
124	0x3cc7a353	0.024369871
125	0x3d35d0d2	0.0443886
126	0xbd5cb42c	-0.053882763
127	0xbc5c88b0	-0.013460323
128	0xbe0dacb7	-0.13835417
129	0xbd77b890	-0.060478747
130	0xbd8ec3e0	-0.06970954
131	0xbd052c61	-0.032513026
132	0x3cce8b47	0.025212897
133	0x3de8956f	0.11356627
134	0xbdbd499f	-0.09242558
135	0x3d62ce72	0.055372663
136	0x3d95e613	0.07319274
137	0x3e0631a7	0.13104878
138	0x3d8bf6c1	0.06834174
139	0x3d27befd	0.040953625
140	0x3e069346	0.13142118
141	0x3d9269ca	0.07149084
142	0xbc615f17	-0.013755581
143	0x3d13ce46	0.03608539
144	0x3e0c6770	0.13711333
145	0xbcd0fedd	-0.025512153
146	0x3d5bda82	0.053675182
147	0x3cd4cde4	0.025977083
148	0x3df7bf0d	0.12096987
149	0x3d92f01e	0.07174705
150	0xbd09b5e5	-0.033620734
151	0x3d8cb40f	0.06870281
152	0xbd7f9b42	-0.062403925
153	0x3cbb2188	0.022843137
154	0x3dfdff6d	0.12402234
155	0xbb6c4d48	-0.0036056805
156	0x3e05da6a	0.130716
157	0x3e135447	0.14387618
158	0xbe021f66	-0.1270729
159	0xbe0a2cc7	-0.13493644
160	0xbdad6433	-0.08466377
161	0x3db525ab	0.08845075
162	0x3de4bbd2	0.111686364
163	0xbce01a57	-0.02735631
164	0xbc707201	-0.014675618
165	0xbcdebca7	-0.027189566
166	0xbdd0d95a	-0.101977065
167	0x3cda821b	0.026673367
168	0x3b9228dc	0.004460437
169	0x3e0c0e16	0.13677248
170	0x3d5af6f9	0.053458188
171	0x3d8bc19b	0.06824037
172	0x3b4f1b6f	0.0031602045
173	0x3daed16d	0.085360385
174	0xbd5fa563	-0.054601084
175	0x3cd8a1dd	0.02644437
176	0xbe0506a6	-0.12990817
177	0x3dbd35fd	0.09238813
178	0x3b2ad001	0.0026063921
179	0x3dabc920	0.08387971
180	0x3dae6150	0.08514655
181	0x3d388b25	0.045054574
182	0xbd17218e	-0.036897235
183	0xbdf761b1	-0.1207918
184	0xbcf61c04	-0.030042656
185	0xbd82d0a2	-0.0638745
186	0xbc0e184a	-0.008672783
187	0x3dfb6c89	0.12276561
188	0xbd06f33f	-0.03294682
189	0x3dac4024	0.08410671
190	0x3e162fb4	0.14666635
191	0x3c78af05	0.015178447
192	0x3d52b85d	0.051445354
193	0xbda79e55	-0.08184496
194	0x3c8c512d	0.017128551
195	0x3d91fb76	0.071280405
196	0x3d300748	0.042975694
197	0x3d3c5d8f	0.045987662
198	0x3db7d878	0.08976835
199	0xbd73813e	-0.059449427
200	0x3d325c40	0.043545008
201	0x3cca2b92	0.02467898
202	0x3d9bbe51	0.07604659
203	0x3d826242	0.063663974
204	0xbd271081	-0.040787224
205	0xbd4100e2	-0.047119983
206	0x3dca91d2	0.09891094
207	0xbd11bfcf	-0.035583314
208	0x3db1f6b5	0.08689634
209	0x3c5e9cd7	0.013587198
210	0x3cf48607	0.029849065
211	0xbdf4e14f	-0.11957037
212	0x3ceee8ed	0.029163802
213	0xbc7b1681	-0.01532519
214	0xbe058cd4	-0.13042003
215	0xbd06d188	-0.03291467
216	0x3cba44cb	0.022737881
217	0x3d594028	0.0530397
218	0xbdc241ab	-0.094851814
219	0x3c8e237c	0.017350905
220	0xba39c67f	-0.0007086768
221	0x3d756192	0.059907503
222	0xbdc7aa72	-0.09749307
223	0x3de29c9b	0.110650264
224	0x3caf37c5	0.021388898
225	0x3d7fb4d4	0.06242831
226	0x3dc4ae18	0.09603518
227	0x3d6adcae	0.057339363
228	0x3e063164	0.13104779
229	0x3d35cb8e	0.044383578
230	0x3d5ef137	0.05442926
231	0xbd4bc2bd	-0.049746264
232	0x3d8afb39	0.06786198
233	0xbd0820e0	-0.033234477
234	0xbc971ba7	-0.018445803
235	0xbc8caee2	-0.017173234
236	0xbdcf274f	-0.101149194
237	0xbdfb387b	-0.12266632
238	0x3d9fd665	0.078045644
239	0xbd906a2f	-0.07051503
240	0xbc4750a7	-0.012165225
241	0xbd92243c	-0.071358174
242	0x3dc19ab0	0.094533324
243	0x3da65e26	0.08123426
244	0xbd6f60f7	-0.058442082
245	0xbda78d78	-0.0818128
246	0x3cba6e9f	0.022757826
247	0xbd806d41	-0.062708385
248	0x3e103f4b	0.14086644
249	0x3de10822	0.10987879
250	0xbd27c60b	-0.040960353
251	0x3ba06b4c	0.0048956033
252	0x3da199e1	0.07890678
253	0x3d86df7b	0.06585594
254	0x3d834d2a	0.06411202
255	0x3dbf8b24	0.09352711

fc.weight f4 [2, 64]
0	0xbdf4db98	-0.11955947
1	0xbe038290	-0.12842774
2	0xbd51a0e7	-0.05117884
3	0xbd896cd8	-0.067102134
4	0xbda1a7c4	-0.07893327
5	0x3d7991d2	0.06093008
6	0x3d42ab32	0.047526546
7	0x3db9e840	0.09077501
8	0x3c79b937	0.015241913
9	0x3e042fff	0.12908934
10	0x3df82480	0.12116337
11	0xbd30725c	-0.04307781
12	0x3a97301e	0.0011534726
13	0xbda7248f	-0.0816127
14	0xbd682e2c	-0.056684658
15	0x3c2ce48b	0.010552536
16	0xbd14dd6b	-0.036343973
17	0x3c666e5f	0.0140644
18	0xbdfca949	-0.12336976
19	0xbdbf57dd	-0.093429305
20	0x3d791313	0.060809206
21	0x3cb89850	0.022533566
22	0xbca49d04	-0.020094402
23	0xbd5e3a23	-0.054254662
24	0xbd42b4f4	-0.04753585
25	0x3cf58765	0.029971788
26	0x3d11753d	0.035512198
27	0xbc8941e2	-0.016755048
28	0x3d5e3ea1	0.054258946
29	0x3deb7626	0.114971444
30	0x3d810c9c	0.06301233
31	0xbddd16e9	-0.107953854
32	0xbd370502	-0.04468251
33	0x3deb5c37	0.11492198
34	0xbd625906	-0.05526068
35	0x3cafdf2c	0.021468721
36	0xbe04b553	-0.12959795
37	0xbdfef57f	-0.124491684
38	0xbb953919	-0.0045539257
39	0xbd76b8b2	-0.060234733
40	0xbd98be6f	-0.07458197
41	0x3de13b88	0.10997683
42	0x3bbb9258	0.0057242326
43	0xbd79724a	-0.06090001
44	0xbdf012b8	-0.1172232
45	0xbd9d2444	-0.07672933
46	0xbd93a1c7	-0.07208591
47	0xbc16f0e6	-0.009212708
48	0xbdecf49d	-0.11570094
49	0x3d9c0b81	0.07619382
50	0xbd095f44	-0.033538118
51	0xbd37e676	-0.04489752
52	0x3d1002da	0.03515897
53	0x3e11fd1b	0.14256708
54	0x3dc005c9	0.093761034
55	0xbdabf407	-0.08396154
56	0xbd05c565	-0.032658953
57	0x3e0c5e92	0.1370795
58	0x3da3b99e	0.07994388
59	0x3d8e68c2	0.06953575
60	0xbc4c15d6	-0.012456378
61	0x3e058341	0.1303835
62	0xbb073616	-0.0020631603
63	0x3c8904be	0.016725894
64	0xbcd9b1e8	-0.02657409
65	0xbdc8b2c9	-0.097997256
66	0x3c30a4df	0.010781496
67	0x3dc23c40	0.09484148
68	0xbd3ab94e	-0.045586877
69	0xbd319ae8	-0.04336062
70	0xbdbb9d98	-0.09160918
71	0xbd7c0d83	-0.061536323
72	0xbdf2f260	-0.118626356
73	0xbbe35541	-0.0069376533
74	0x3dc65a0a	0.09685142
75	0x3d1df230	0.038561046
76	0xbdab130c	-0.08353242
77	0x3de77195	0.11300961
78	0x3d957123	0.0729697
79	0x3db5d74f	0.088789575
80	0xbe0dcefa	-0.13848487
81	0xbddfbeb0	-0.10925043
82	0x3da0bad4	0.07848135
83	0x3dd30c09	0.1030503
84	0xbdf4b8e3	-0.11949327
85	0x3cb25d8a	0.021773119
86	0xbd9212e5	-0.0713251
87	0x3d502e03	0.05082513
88	0x3c11a9bc	0.0088905655
89	0x3d5cd05d	0.05390965
90	0xbceacb5b	-0.02866142
91	0xbd91a3d4	-0.07111326
92	0xbdbfcbe1	-0.09365059
93	0xbca12bd6	-0.019674223
94	0x3d628b9c	0.055308923
95	0x3e0c2a25	0.13687952
96	0x3dd03eb5	0.101682104
97	0xbd7d65bf	-0.06186461
98	0xbd05fd81	-0.032712463
99	0x3b9ae2f5	0.0047267624
100	0x3ca75310	0.02042535
101	0x3d3d5523	0.04622377
102	0xbc885608	-0.016642585
103	0x3dcbd2e9	0.09952337
104	0x3bc233e2	0.005926595
105	0xbdca7e72	-0.09887399
106	0x3c88d3e2	0.016702596
107	0x3d605958	0.054772705
108	0xbdcac60d	-0.099010564
109	0x3db704a6	0.089364335
110	0xbd67ab1a	-0.05655966
111	0xbcad6b5d	-0.021169359
112	0x3e156924	0.14590889
113	0xbd4d7fa1	-0.050170545
114	0x3db9ae4b	0.09066447
115	0xbc07e0c8	-0.008293338
116	0xbda796bc	-0.08183047
117	0xbe10a8a0	-0.14126825
118	0xbe0af016	-0.13568148
119	0x3e157665	0.14595945
120	0xbd8c15c2	-0.068400875
121	0x3cbbbd14	0.022917308
122	0x3ce3d99b	0.027813723
123	0xbe0f5777	-0.13998209
124	0xbdd6a400	-0.10480499
125	0x3a99deaa	0.0011739333
126	0xbd687bb0	-0.056758583
127	0x3db45023	0.08804347

fc.bias f4 [2]
0	0x3e16a5c6	0.14711675
1	0x3da61c41	0.08110858
